Best model weights/LSTM ICAN Best Model/0.088611.training_1083_best_model.pth (torch, 14986 bytes, 33 tensors)

lstm.weight_ih_l0 f4 [24, 1]
0	0xbe70e471	-0.23524643
1	0x3f1ea36e	0.61968124
2	0xbf087fef	-0.5332021
3	0xbd14665e	-0.036230437
4	0x3df85da6	0.12127237
5	0x3ec04434	0.37552035
6	0x3f1165e7	0.56796116
7	0x3f284a49	0.6573835
8	0xbf253cbb	-0.6454579
9	0x3ca7628d	0.020432735
10	0x3e223fff	0.15844725
11	0x3e67b38b	0.22627084
12	0xbb0c9193	-0.0021449074
13	0xbfa0fe0e	-1.2577531
14	0xbeef865e	-0.46782202
15	0x3eade39e	0.3396272
16	0xbf26e22d	-0.65188867
17	0x3f87880d	1.0588394
18	0x3ddee65d	0.10883782
19	0x3f33e9b1	0.7027846
20	0xbf36a1cd	-0.7134064
21	0x3ec223b4	0.37917864
22	0x3eca79e8	0.39546132
23	0x3f197c87	0.5995564

lstm.weight_hh_l0 f4 [24, 6]
0	0xbe692dea	-0.22771421
1	0x3e20c4d7	0.15700088
2	0xbf0f6d37	-0.56026024
3	0x3ed11e4d	0.4084343
4	0x3edd1aac	0.43184412
5	0x3f8d32ad	1.103109
6	0xbf0a2f00	-0.53977966
7	0xbfa4b8b2	-1.2868865
8	0x3f75c4c9	0.96003395
9	0x3e622a81	0.22086526
10	0xbf4ae990	-0.7926264
11	0x3ec689fc	0.3877715
12	0x3f1f0438	0.6211581
13	0xbf482a38	-0.7818942
14	0xbe4afcd0	-0.19823003
15	0x3e405f76	0.18786415
16	0x3f172268	0.59036875
17	0xbe8c7f62	-0.27440935
18	0xbee14518	-0.43998027
19	0xbe533125	-0.20624216
20	0x3ecc6e39	0.39927843
21	0xbcd82795	-0.026386062
22	0xbe0dc2db	-0.13843863
23	0x3e86d740	0.26336098
24	0xbe2a3ca8	-0.16624701
25	0xbf93d24b	-1.1548551
26	0xbde15eab	-0.110043846
27	0x3f3e3eb9	0.7431446
28	0x3d16c463	0.036808383
29	0x3edc78fa	0.43061048
30	0xbed4381c	-0.41449058
31	0xbe5c0f74	-0.2149027
32	0xbd701259	-0.058611248
33	0xbda0ab11	-0.07845128
34	0xbeaf4df0	-0.3423915
35	0x3ead62fc	0.33864582
36	0xbea04f25	-0.31310382
37	0x3ea79853	0.32733402
38	0xbf8a3c0d	-1.0799576
39	0x3f4d442a	0.80182135
40	0x3e13c438	0.1443032
41	0x3f75e6dd	0.96055394
42	0x3ee432da	0.44570047
43	0xbe3fd702	-0.18734363
44	0x3e9b9264	0.30385125
45	0xbdf612a9	-0.12015278
46	0x3f6c4c61	0.92304045
47	0xbdbf60d0	-0.093446374
48	0x3f5c3b86	0.86028326
49	0x3ecca373	0.39968452
50	0xbdf6017a	-0.120120004
51	0x3e6c98fe	0.23105237
52	0x3f33cdd4	0.70235944
53	0xbf2efca2	-0.6835424
54	0xbed592f4	-0.4171368
55	0x3dbf2b6e	0.093344554
56	0xbf1c4dde	-0.61056316
57	0x3f58b91f	0.8465747
58	0xbe91c550	-0.2847085
59	0x3ee2e448	0.4431479
60	0xbd0f83c1	-0.03503776
61	0xbf838272	-1.0274184
62	0xbefd3ed7	-0.49462005
63	0x3e4a11cd	0.19733353
64	0x3e42d913	0.1902812
65	0x3eedd843	0.46454057
66	0x3e3858f0	0.18002677
67	0x3e9775bc	0.29582012
68	0x3f2ed709	0.6829687
69	0xbf931006	-1.1489265
70	0x3ee21b79	0.44161585
71	0x3e1c2c12	0.15251186
72	0xbd6be314	-0.057589605
73	0x3f7d10d3	0.98853797
74	0x3f32c4a6	0.6983131
75	0xbf0c43de	-0.5479106
76	0x3e68776a	0.22701803
77	0xbf8aca3f	-1.0842971
78	0x3f02fea2	0.5116979
79	0xbf161313	-0.58622855
80	0xbee685cd	-0.45023957
81	0x3ee13ad3	0.43990192
82	0x3e2e1a76	0.17002282
83	0x3d64bd41	0.05584455
84	0x3b0ab4f9	0.0021164997
85	0x3db3c2be	0.087773785
86	0xbf48d832	-0.7845489
87	0x3dcd0b25	0.10011891
88	0x3f0b0ad9	0.5431343
89	0xbf35bd76	-0.7099222
90	0xbf048dcf	-0.5177888
91	0xbf75b390	-0.95977116
92	0x3e20c11d	0.15698667
93	0x3d75293b	0.059853774
94	0xbf2e1f90	-0.6801691
95	0x3fa251c4	1.2681203
96	0x3e8863a1	0.2663851
97	0x3f513c5d	0.8173273
98	0xbf0f5676	-0.55991304
99	0x3ce85abf	0.028363584
100	0xbe57d342	-0.21076682
101	0xbe95b864	-0.2924224
102	0x3ee8cde6	0.45469588
103	0x3e7aee93	0.24505071
104	0x3de51f7f	0.11187648
105	0xbe974fbb	-0.29553017
106	0x3e75afcb	0.23992841
107	0xbc794beb	-0.015215854
108	0x3e4ab89d	0.19796987
109	0xbf866ac0	-1.0501328
110	0xbf6fa395	-0.9360898
111	0x3f4071d3	0.7517368
112	0xbde79364	-0.113074094
113	0x3f67ad67	0.90498966
114	0x3bf2f0d5	0.0074139633
115	0xc00fb512	-2.2454267
116	0x3f31e583	0.6949083
117	0x3ecf0d86	0.40440005
118	0xbfbd6e78	-1.4799337
119	0xbe0d15ff	-0.13777922
120	0x3ea875e6	0.3290245
121	0xbecdf5c8	-0.4022658
122	0xbe023470	-0.12715316
123	0x3e5849b5	0.21121867
124	0x3f132925	0.57484657
125	0xbe9d090b	-0.30670962
126	0xbe12d349	-0.14338411
127	0xbf576310	-0.8413553
128	0xbcae1d33	-0.021254158
129	0x3ee4a282	0.44655234
130	0xbe33b325	-0.17548807
131	0x3e326c08	0.17424023
132	0x3b3bbf34	0.0028647901
133	0xbfacb05c	-1.3491321
134	0x3e42b6c2	0.19015029
135	0x3f329bee	0.6976918
136	0x3d802d0a	0.062585905
137	0x3f093aef	0.5360555
138	0xbf43b9bf	-0.764553
139	0xbef644aa	-0.48099262
140	0x3f825e0d	1.0184952
141	0xbeaee514	-0.34159148
142	0x3dab10d4	0.08352819
143	0x3e3d2816	0.18472323

lstm.bias_ih_l0 f4 [24]
0	0xbebf41a9	-0.37354782
1	0xbec936aa	-0.39299518
2	0xbf1d24c8	-0.6138425
3	0x3ee78e6f	0.45225856
4	0xbf1ccb99	-0.61248165
5	0x3f54b77f	0.8309249
6	0x3eda98f6	0.42694825
7	0xbec49b37	-0.3839967
8	0xbf5052ef	-0.81376547
9	0xbe3ac9da	-0.18241063
10	0xbe8aa4e8	-0.27078938
11	0x3ef8b5ae	0.4857611
12	0xbeba113b	-0.3634127
13	0x3ed12681	0.4084969
14	0x3e88cd5e	0.26719183
15	0xbc259b35	-0.010107805
16	0x3e0b4e74	0.13604146
17	0xbe07e0b9	-0.13269319
18	0x3e7750a6	0.24151859
19	0x3c8f3744	0.017482407
20	0xbf067f68	-0.52538157
21	0x3cbead22	0.023275916
22	0xbeb1598f	-0.3463864
23	0x3f9af843	1.2107013

lstm.bias_hh_l0 f4 [24]
0	0xbe694667	-0.22780763
1	0xbecaacad	-0.39584866
2	0xbf064681	-0.5245133
3	0xbe78b82e	-0.24289009
4	0xbf2472fe	-0.64237964
5	0x3f2f9fd9	0.68603283
6	0xbd78800a	-0.060668983
7	0x3d60675c	0.05478607
8	0xbe681d5a	-0.22667447
9	0xbe8232e4	-0.2542945
10	0xbf36414a	-0.71193373
11	0x3ea1dba9	0.316129
12	0x3e3ecb13	0.18632154
13	0x3e8c8de8	0.27452016
14	0xbda0b060	-0.07846141
15	0xbcc0c434	-0.023531057
16	0x3e8a1f16	0.26976842
17	0xbe4f7d72	-0.20262697
18	0xbebc7cd3	-0.36813983
19	0xbebd9c52	-0.37033325
20	0xbee1e419	-0.44119337
21	0x3ec9496d	0.39313832
22	0xbf1e435c	-0.6182153
23	0x3f52d1c9	0.82351357

lstm.weight_ih_l1 f4 [24, 6]
0	0xbf5a448e	-0.85260856
1	0xbedaa83f	-0.42706487
2	0x3f2ce469	0.67536026
3	0x3eb54b61	0.35409072
4	0xbf3229bd	-0.6959494
5	0xbf63e1a9	-0.89016205
6	0x3f09514a	0.5363966
7	0x3dfbb9d8	0.12291306
8	0xbb8d7381	-0.0043167477
9	0xbf3a905d	-0.7287653
10	0x3e357907	0.1772195
11	0xbf7c93a5	-0.9866279
12	0xbdb78319	-0.08960552
13	0xbeaa2419	-0.33230665
14	0xbf08a79f	-0.5338077
15	0x3e469cdb	0.19395773
16	0xbda6d168	-0.0814541
17	0x3f4a8997	0.79116195
18	0xbf24045a	-0.6406914
19	0xbf365cf3	-0.7123558
20	0xbb37f76a	-0.0028071054
21	0x3ef00336	0.4687745
22	0xbf5233c9	-0.8211027
23	0x3efd58c8	0.49481797
24	0xbdbad73e	-0.091230854
25	0x3dd2f631	0.103008635
26	0x3e881ec3	0.2658597
27	0xbe1bb9c6	-0.15207586
28	0xbe88398f	-0.26606414
29	0x3eb92adf	0.3616552
30	0x3e8df624	0.27726853
31	0x3e2c70e4	0.1683994
32	0xbdcdd436	-0.10050242
33	0xbef402e0	-0.47658443
34	0x3e92ab79	0.28646448
35	0xbf07b395	-0.53008395
36	0x3d211243	0.039324056
37	0x3e21f001	0.1581421
38	0x3e3a0d48	0.18169129
39	0xbf154202	-0.58303845
40	0x3eb39f21	0.35082343
41	0xbd0231b3	-0.031785678
42	0x3ebbfd5d	0.36716738
43	0x3db5792f	0.088610046
44	0x3e37be0f	0.17943595
45	0xbefd90b0	-0.4952445
46	0x3d833108	0.06405836
47	0xbf6641c9	-0.8994413
48	0xbe88b61e	-0.26701444
49	0xbf8c390b	-1.0954908
50	0xbf10462e	-0.56357086
51	0x3cfe655a	0.031054188
52	0x3e6278e7	0.22116433
53	0x3f592f31	0.84837633
54	0xbdcb73a5	-0.09934167
55	0xbf3f55d8	-0.7474036
56	0xbf2fd1c8	-0.68679476
57	0x3ebb0159	0.36524466
58	0xbe8fa394	-0.28054488
59	0x3f5ef403	0.8709108
60	0x3e3c896b	0.18411796
61	0xbfac680a	-1.346925
62	0xbf2d0fde	-0.67602336
63	0x3e6f2ea8	0.23357642
64	0x3e269534	0.16267854
65	0x3f8a4c7b	1.080459
66	0x3efbfc94	0.4921614
67	0xbf63a035	-0.8891633
68	0xbe3de8bd	-0.18545814
69	0xbf980e4a	-1.1879361
70	0x3f15fc62	0.5858823
71	0xbf1622bc	-0.5864675
72	0xbf358819	-0.70910794
73	0xbf73f7a9	-0.95299774
74	0xbf0ffeed	-0.5624836
75	0x3f556e48	0.833714
76	0xbf306b6e	-0.68913925
77	0x3fda1fe3	1.7040981
78	0xbd860558	-0.06543988
79	0x3edd9827	0.43280146
80	0x3f40803c	0.7519567
81	0xbf02c01f	-0.51074404
82	0x3c16b1b3	0.00919764
83	0xbf63384f	-0.88757795
84	0xbe9f1201	-0.31068423
85	0x3f470be7	0.77752537
86	0x3e9a1354	0.3009287
87	0x3ebb7a41	0.3661671
88	0x3e8ab38c	0.27090108
89	0xbfe21d0c	-1.7665114
90	0x3f24ef7d	0.6442793
91	0x3fbe65f8	1.4874868
92	0x3ea43cd3	0.32077655
93	0xbee81569	-0.45328835
94	0x3f4a424c	0.7900741
95	0xbfc2701c	-1.5190463
96	0xbd212034	-0.039337352
97	0x3f6c8d5e	0.9240321
98	0x3f3d0773	0.7383949
99	0xbf02246b	-0.5083682
100	0x3ec313a0	0.3810091
101	0xbfd2ccad	-1.6468712
102	0x3d3d63b5	0.046237666
103	0x3db09657	0.08622425
104	0x3e7259c3	0.23667054
105	0xbf08ee73	-0.53488845
106	0xbd875e85	-0.06609825
107	0xbfaa296c	-1.3293891
108	0xbf86673f	-1.0500258
109	0x3d871c3f	0.065971844
110	0x3ef40b8b	0.47665057
111	0x3dd99196	0.106234714
112	0xbf74ef62	-0.9567777
113	0xbefd1a9c	-0.49434364
114	0xbd0ce3bf	-0.034396883
115	0xbe4048d0	-0.18777776
116	0x3eb868d4	0.36017478
117	0xbe6f6edc	-0.23382133
118	0x3cbea23b	0.023270717
119	0xbf59a701	-0.8502045
120	0xbe56c8d1	-0.20975043
121	0xbfb085d3	-1.379084
122	0xbf6db642	-0.9285623
123	0x3ee179e9	0.44038323
124	0xbf30c171	-0.6904517
125	0x3f8d016c	1.1016059
126	0xbf4d75d0	-0.8025789
127	0xbfa20765	-1.2658507
128	0xbf27b06f	-0.6550359
129	0x3ea08f7f	0.3135948
130	0xbf43d74a	-0.7650038
131	0x3fef2a8c	1.8684859
132	0xbe2fe7d7	-0.17178284
133	0xbeb36ddd	-0.35044757
134	0xbedb80e7	-0.42871782
135	0x3e2c8950	0.16849256
136	0xbf68e13c	-0.9096868
137	0x3f291576	0.6604837
138	0xbd8e6063	-0.06951978
139	0xbf3e9fde	-0.7446269
140	0x3ece784c	0.40326154
141	0xbdd43025	-0.10360745
142	0xbe4da65d	-0.20082994
143	0xbeca0466	-0.3945648

lstm.weight_hh_l1 f4 [24, 6]
0	0xbe6b93b1	-0.23005559
1	0x3e32417c	0.17407793
2	0xbf36d538	-0.71419096
3	0xbf94217a	-1.1572716
4	0xbf79f16b	-0.97634
5	0x3f3dedf7	0.7419123
6	0xbea760bc	-0.3269099
7	0xbe878ce6	-0.26474684
8	0xbf2391de	-0.6389445
9	0xbe15ae42	-0.14617255
10	0xbea90135	-0.33008733
11	0x3e67e714	0.22646743
12	0x3efd1ded	0.49436894
13	0xbf17984f	-0.5921678
14	0xbf011df2	-0.5043632
15	0xbeba77dc	-0.3641957
16	0xbef3a5be	-0.4758739
17	0xbf144d19	-0.5793014
18	0xbf66d767	-0.9017243
19	0x3ebd4603	0.36967477
20	0xbe22bf50	-0.15893292
21	0xbe8706b1	-0.26372293
22	0x3e1adc9d	0.1512322
23	0x3eb80789	0.3594325
24	0xbf20e3e1	-0.62847716
25	0x3eef9bd5	0.46798578
26	0x3f3873c2	0.7205163
27	0xbe93a32c	-0.28835428
28	0x3d72172d	0.059104133
29	0xbe95def0	-0.2927165
30	0xbe82a807	-0.2551882
31	0x3f4d4bbb	0.8019368
32	0xbe92aae6	-0.2864601
33	0x3d5daa9f	0.054117795
34	0xbefd0e1b	-0.49424824
35	0x3f059584	0.5218127
36	0x3e764842	0.24051002
37	0x3e028c30	0.1274879
38	0x3e1a755a	0.15083829
39	0x3e205cdb	0.15660422
40	0x3e1d1edd	0.15343805
41	0x3e0e829d	0.13917013
42	0x3ddc6ad0	0.1076256
43	0xbe15ec10	-0.14640832
44	0x3e24ebac	0.16105527
45	0x3f864cac	1.0492148
46	0x3f006f22	0.50169575
47	0xbe5e2c25	-0.21696527
48	0x3f538877	0.82630104
49	0xbddb7aef	-0.10716807
50	0x3d1626a3	0.03665794
51	0xbdd0938a	-0.10184391
52	0x3e32d585	0.17464264
53	0xbef5f3cb	-0.48037562
54	0xbe223753	-0.15841417
55	0x3ea63f1a	0.32470018
56	0xbc058930	-0.008150384
57	0x3ec55d08	0.3854754
58	0x3e6da303	0.23206715
59	0xbd7916ae	-0.060812645
60	0x3f877719	1.0583221
61	0xbed66cfb	-0.4188002
62	0x3e971952	0.29511505
63	0xbe408135	-0.18799289
64	0xbe79f525	-0.24409921
65	0xbf11f29b	-0.5701081
66	0xbe890d9b	-0.26768193
67	0x3f26336d	0.6492222
68	0x3cfedf4f	0.031112341
69	0x3e40b2e5	0.18818243
70	0x3f7c14b0	0.98469067
71	0x3f4ab1a7	0.79177326
72	0xbf14a1cd	-0.5805939
73	0x3ed9ebef	0.42562816
74	0x3f0a0861	0.53919035
75	0x3e54da08	0.20786297
76	0x3f2cfdf1	0.67574984
77	0x3ed539c3	0.4164563
78	0xbecb4a8f	-0.3970532
79	0xbbe1cb64	-0.006890701
80	0xbeb24f94	-0.34826338
81	0x3ed3b088	0.4134562
82	0xbdb20df4	-0.086940676
83	0xbda20290	-0.07910645
84	0xbfa8370f	-1.3141803
85	0x3dc775b0	0.09739244
86	0xbebfe102	-0.37476355
87	0x3edf15a7	0.43571207
88	0x3e246ef7	0.16057955
89	0xbf07fedd	-0.53123266
90	0x3d1861bc	0.03720258
91	0xbe5ec557	-0.21754967
92	0xbee11d66	-0.43967742
93	0x3df3dd93	0.11907496
94	0xbebf7f30	-0.37401724
95	0xbf07e28a	-0.53080046
96	0xbec495ed	-0.38395634
97	0x3e2bb542	0.16768363
98	0x3f5a9eb8	0.85398436
99	0x3f21162b	0.6292445
100	0xbd827aeb	-0.06371101
101	0xbf31b36c	-0.694144
102	0x3cbf291a	0.023335028
103	0xbd11e9d4	-0.035623387
104	0x3f82eede	1.0229146
105	0x3f5005d5	0.812589
106	0x3f3d1101	0.7385407
107	0x3f2f8d3d	0.6857489
108	0xbf0246ad	-0.5088909
109	0x3fa7fdf3	1.3124374
110	0xbf33b372	-0.70195687
111	0xbf351939	-0.7074161
112	0xbefab1a4	-0.48963654
113	0x3ebc3e2a	0.36766177
114	0xbee09f03	-0.43871316
115	0xbd12daf2	-0.035853334
116	0xbe815232	-0.25258023
117	0x3ec29d65	0.38010707
118	0xbe21ee7b	-0.1581363
119	0x3ea8fa55	0.33003488
120	0x3f93be3d	1.1542431
121	0xbf375acb	-0.71622914
122	0x3def01a4	0.11670235
123	0xbdb361fc	-0.087589234
124	0xbeb69249	-0.35658482
125	0xbe7d4fab	-0.24737422
126	0xbebd1d0b	-0.3693622
127	0x3f1d72de	0.615034
128	0xbea96d1c	-0.33091056
129	0x3ec390ec	0.38196504
130	0x3e00e1ce	0.12586138
131	0x3ed551b8	0.4166391
132	0xbe789825	-0.24276789
133	0x3ed6133e	0.41811556
134	0x3d8a83e6	0.06763439
135	0xbed58e2d	-0.41710034
136	0xbf664323	-0.8994619
137	0x3e9688a2	0.29401118
138	0xbeb56d26	-0.35434836
139	0x3f8cd0e8	1.1001253
140	0x3dabee92	0.08395113
141	0x3f4b1bf6	0.7933954
142	0x3c5f258d	0.013619793
143	0x3e531d2c	0.20616597

lstm.bias_ih_l1 f4 [24]
0	0x3f841b94	1.0320916
1	0xbeae9841	-0.34100536
2	0xbe8e9552	-0.27848297
3	0x3d7ee0f5	0.062226254
4	0x3f36b97c	0.71376777
5	0xbd1b1dd6	-0.03787025
6	0xbeffe2a6	-0.49977607
7	0xbe887dd7	-0.26658508
8	0xbf272e0a	-0.65304625
9	0xbd762c64	-0.060100928
10	0xbf42346e	-0.7586125
11	0x3ef720f7	0.48267338
12	0xbe55d3bd	-0.20881553
13	0xbca22fdd	-0.019798214
14	0x3d76002e	0.060058765
15	0xbe149d1d	-0.14513059
16	0x3e374a97	0.17899548
17	0x3e5b2c4d	0.21403618
18	0x3f8946f8	1.0724783
19	0xbde834e1	-0.11338211
20	0xbea8f1a8	-0.3299687
21	0x3e378979	0.17923535
22	0x3f16657c	0.587486
23	0x3eef2ac1	0.46712306

lstm.bias_hh_l1 f4 [24]
0	0x3f2320bd	0.6372183
1	0xbe939d4d	-0.28830948
2	0x3e1a7668	0.15084231
3	0x3e99fb7e	0.30074686
4	0x3e8fe8a4	0.28107178
5	0xbf04ef14	-0.51927304
6	0x3e55d4a0	0.20881891
7	0xbd55375c	-0.052054748
8	0xbe1ec3f2	-0.15504435
9	0xbefb05c8	-0.49027848
10	0xbf67c688	-0.9053731
11	0x3f57cd4d	0.8429764
12	0xbdbeb7d5	-0.09312407
13	0x3e95d8de	0.2926702
14	0x3e383abe	0.17991158
15	0x3def048c	0.11670789
16	0x3eba4cb0	0.36386633
17	0x3e241a7f	0.16025732
18	0x3fa27a51	1.2693578
19	0x3ea29ca3	0.3176013
20	0x3e53062a	0.2060782
21	0xbe394a7d	-0.18094821
22	0x3f363f86	0.7119068
23	0x3d04dffd	0.032440174

lstm.weight_ih_l2 f4 [24, 6]
0	0xbe5fc351	-0.21851851
1	0x3f469ad2	0.7757999
2	0xbee95508	-0.45572686
3	0x3d1e6783	0.038672935
4	0x3f286207	0.6577458
5	0x3fa089d3	1.2542061
6	0xbf2ca57f	-0.67440027
7	0x3f248c5e	0.64276683
8	0xbea8cece	-0.3297028
9	0xbf1e5de2	-0.61862004
10	0xbf66f1fa	-0.90212977
11	0x3efe58b5	0.49677053
12	0x3f40172d	0.75035363
13	0xbe122f20	-0.1427579
14	0xbf44d518	-0.76887655
15	0x3d38a3f4	0.045078233
16	0xbf693eea	-0.91111624
17	0xbebe609d	-0.37183085
18	0x3f029574	0.510093
19	0x3e8b9fd1	0.27270368
20	0xbfa2aef6	-1.2709644
21	0x3d4dd967	0.05025616
22	0xbf53ad9f	-0.826868
23	0xbc52a5da	-0.012856925
24	0xbf2dc91e	-0.67885005
25	0x3ea087b4	0.31353533
26	0xbe04693a	-0.12930766
27	0x3e9afcc7	0.3027098
28	0x3f5edcf7	0.87055916
29	0x3f9731e2	1.1812098
30	0xbf2a1554	-0.66438794
31	0x3e83b80e	0.2572636
32	0xbf10c52e	-0.5655087
33	0xbdf1f510	-0.1181432
34	0xbe63481a	-0.22195473
35	0x3f0af04b	0.5427291
36	0xbe004d3a	-0.1252946
37	0xbec90b28	-0.39266324
38	0xbe80be6f	-0.2514529
39	0x3f107d8b	0.56441563
40	0x3e4cdf23	0.20006995
41	0x3e72d92b	0.23715656
42	0x3f86a2cc	1.0518432
43	0xbef1812d	-0.47168866
44	0xbf4e546e	-0.8059758
45	0x3f03c32c	0.51469684
46	0xbf0bb7a7	-0.54577106
47	0xbe959c4f	-0.29220816
48	0x3f3e55f8	0.7434993
49	0xbda16f68	-0.07882577
50	0xbee8e6f6	-0.4548871
51	0xbe76e272	-0.2410982
52	0xbf86f45d	-1.0543324
53	0xbf101fdd	-0.5629862
54	0x3edb3421	0.4281321
55	0xbeea4543	-0.45755967
56	0x3e11352e	0.14180443
57	0xbf0734f9	-0.52815205
58	0xbf82bf10	-1.0214558
59	0xbf480feb	-0.7814929
60	0xbed001e1	-0.40626433
61	0x3ead8634	0.3389145
62	0xbe4c2366	-0.19935378
63	0x3f35eff7	0.7106928
64	0x3eba21f7	0.36354038
65	0x3fa0be5d	1.2558094
66	0xbf1850cd	-0.5949829
67	0x3f221981	0.63320166
68	0xbf5df78e	-0.86705863
69	0x3f3f1d94	0.7465451
70	0xbd75f4de	-0.060047977
71	0x3ea8aa61	0.3294249
72	0xbfddf38c	-1.733995
73	0x3f3677d6	0.71276605
74	0xbf73ddb9	-0.95260197
75	0x3f0d9ab9	0.55314213
76	0x3f40f406	0.7537235
77	0x3ee0f9ca	0.43940574
78	0x3fb39ca4	1.4032178
79	0xbf18078f	-0.59386533
80	0xbe8b6c45	-0.2723104
81	0xbf2a4282	-0.6650773
82	0xbf2237a1	-0.6336613
83	0xbed01864	-0.4064361
84	0xbf2996fa	-0.66245997
85	0x3e662ae0	0.22477293
86	0x3f981cc8	1.1883783
87	0x3e5c0794	0.21487266
88	0x3f1e014f	0.61720747
89	0x3e32ee9b	0.17473833
90	0x3f7d3c09	0.9891973
91	0xbf7abd73	-0.97945327
92	0xbf19122e	-0.59793365
93	0xbdfee2cc	-0.12445602
94	0xbf460e53	-0.7736561
95	0xbf45be2c	-0.77243304
96	0xbff6ceed	-1.9281899
97	0x3efdf6f0	0.4960246
98	0x3f0b8132	0.5449401
99	0x3f969909	1.1765453
100	0x3f32b3f5	0.6980584
101	0x3eb65df7	0.35618564
102	0xbf36c6db	-0.7139718
103	0x3ee8e894	0.45489943
104	0x3ecd9645	0.4015371
105	0x3f8f2263	1.1182369
106	0x3f723f6d	0.9462803
107	0x3f0c4318	0.54789877
108	0xbf2907bc	-0.66027427
109	0x3f5ea929	0.8697687
110	0xbf76eaf9	-0.9645229
111	0x3ee735fb	0.4515837
112	0xbe912362	-0.28347307
113	0x3f98cc44	1.1937337
114	0xbf4fa63b	-0.8111302
115	0x3ea1d2f6	0.31606263
116	0xbf420e7f	-0.7580337
117	0xbf947cae	-1.1600549
118	0xbf228889	-0.63489586
119	0x3f07bed4	0.53025556
120	0x3fa44d5d	1.2836109
121	0xbdbbba8f	-0.091664426
122	0xbf813122	-1.0093119
123	0xbecfbe18	-0.40574718
124	0xbfa1ef9b	-1.2651247
125	0xbe34dd9d	-0.17662664
126	0x3ed1e01a	0.40991288
127	0xbe710c51	-0.23539855
128	0x3d8ffe55	0.07030932
129	0xbf94373f	-1.157936
130	0xbee9caba	-0.4566248
131	0xbbbb0d8e	-0.005708403
132	0xbf9b048b	-1.2110761
133	0x3fa4d992	1.2878897
134	0x3d9ce789	0.07661349
135	0x3f857152	1.0425208
136	0x3f6fb561	0.9363614
137	0x3fb4fcac	1.4139609
138	0xbe09bd7e	-0.13451192
139	0x3f0d7d40	0.5526924
140	0xbf9bc95a	-1.2170823
141	0xbe50e92d	-0.2040145
142	0x3f067b82	0.5253221
143	0x3f9e92d2	1.2388556

lstm.weight_hh_l2 f4 [24, 6]
0	0x3f3ddacf	0.74162
1	0x3fc2e408	1.522584
2	0xbf0f8eab	-0.5607707
3	0x3e93c49a	0.28860933
4	0x3f95d7e8	1.1706514
5	0x3ea34bab	0.31893668
6	0x3e30c970	0.17264342
7	0x3e139138	0.14410865
8	0xbeb83904	-0.35981
9	0xbea17e42	-0.3154164
10	0x3e6e6f84	0.23284727
11	0xbf055c4f	-0.52093977
12	0x3ef394a7	0.4757435
13	0x3f4f7ec9	0.81052834
14	0xbde5f7d7	-0.11228912
15	0x3e376001	0.17907716
16	0x3f759d92	0.9594356
17	0x3ed31e9a	0.41234285
18	0x3ec50c11	0.38485768
19	0x3c6c84b7	0.014435939
20	0xbf075c9b	-0.5287568
21	0xbd3b9306	-0.04579451
22	0x3fe5427c	1.7910914
23	0xbd68731e	-0.05675041
24	0xbce0a84f	-0.027424006
25	0x3f4bf754	0.7967427
26	0xbf0c4e4c	-0.5480697
27	0x3edfa19b	0.43677983
28	0x3e11c5aa	0.14235559
29	0x3eb01875	0.3439366
30	0xbf944662	-1.1583979
31	0x3d959aff	0.07304954
32	0xbf11b47f	-0.5691604
33	0x3e372e0d	0.1788866
34	0x3ed701c0	0.41993523
35	0x3b1982dc	0.0023423946
36	0x3d4a320f	0.049364146
37	0x3e5c2ff7	0.21502672
38	0x3f52b099	0.82300717
39	0x3ee70d17	0.45127174
40	0xbf2f9cd6	-0.6859869
41	0x3db7423f	0.08948182
42	0xbd12e45d	-0.035862315
43	0xbd8b25b2	-0.06794299
44	0x3e45266f	0.19252943
45	0xbeaa0def	-0.33213755
46	0xbe993989	-0.29926708
47	0xbd97e332	-0.07416381
48	0xbdfeb9e8	-0.124378026
49	0xbd2d3340	-0.042285204
50	0x3ec7f007	0.39050314
51	0xbe74f110	-0.23920083
52	0x3f14752c	0.5799129
53	0x3f622abb	0.8834645
54	0xbf90e7d7	-1.1320752
55	0x3eeaf485	0.4588968
56	0xbf362823	-0.71154994
57	0x3f6aa31e	0.9165515
58	0x3ec7be19	0.3901222
59	0xbf041b91	-0.51604563
60	0x3e56df83	0.209837
61	0xbe8e7ba8	-0.27828717
62	0xbdaf0014	-0.08544937
63	0xbf62a4cf	-0.8853273
64	0xbeabb01b	-0.33532795
65	0x3d9e729e	0.07736705
66	0x3e6d8dd2	0.23198631
67	0xbeaa2a17	-0.33235237
68	0xbf45fdab	-0.7734019
69	0x3f018942	0.50600064
70	0x3eb8d3f5	0.3609921
71	0x3e9a4ffe	0.30139154
72	0xbf441f71	-0.76610476
73	0xbf82894d	-1.0198151
74	0x3f57bdd0	0.84274006
75	0xbb0cad1f	-0.0021465493
76	0xbf6ef5d5	-0.9334386
77	0xbee2f5f8	-0.44328284
78	0x3f245ec0	0.6420708
79	0xbf3c6268	-0.73587656
80	0x3e1847ff	0.14871214
81	0xbe1de11f	-0.15417908
82	0x3f68ff64	0.91014695
83	0x3f0c22f0	0.5474081
84	0xbf21976a	-0.63121665
85	0x3eda6c8e	0.42660946
86	0x3e1b2ddd	0.15154214
87	0x3f65eb37	0.89812034
88	0xbf19b467	-0.600409
89	0xbe3a1a45	-0.18174084
90	0x3e123e27	0.14281522
91	0xbdf477ca	-0.119369105
92	0xbfb23421	-1.3922158
93	0xbf1045a9	-0.5635629
94	0x3def5898	0.1168682
95	0xbee2a0fb	-0.44263443
96	0x3f36143e	0.7112464
97	0xbd473811	-0.048637453
98	0x3df8f87a	0.12156768
99	0x3f1b63cb	0.60699147
100	0xbf1be8be	-0.6090201
101	0xbf2845f1	-0.6573172
102	0xbeb6ba7f	-0.3568916
103	0xbe96e218	-0.2946937
104	0x3e1a017b	0.15039627
105	0x3f25dc09	0.6478887
106	0x3e77d97e	0.2420406
107	0xbf636b44	-0.8883555
108	0x3ec5335f	0.38515756
109	0x3f222ae9	0.63346726
110	0xbf945bbf	-1.1590499
111	0xbdd0d75e	-0.10197328
112	0x3ecbdc22	0.39816386
113	0x3edb13ec	0.42788637
114	0x3e60e7f3	0.21963482
115	0x3df5e0a4	0.120057374
116	0xbf74fec0	-0.9570122
117	0xbeec1054	-0.46106207
118	0x3de19960	0.11015582
119	0xbef94b3a	-0.48690206
120	0x3ec1385a	0.37738305
121	0x3f3aec61	0.73016936
122	0x3cbdb58d	0.02315786
123	0xbbe5500f	-0.006998069
124	0x3f91c107	1.1387032
125	0x3f28c42d	0.6592434
126	0xbf7bbd9a	-0.98336184
127	0xbf75c078	-0.9599681
128	0xbeb02734	-0.3440491
129	0x3fbc28bc	1.4699931
130	0x3f955e11	1.1669332
131	0xbedbf8b4	-0.42963183
132	0x3d9b995a	0.07597609
133	0x3e5ee287	0.21766101
134	0xbf7ad8c6	-0.9798702
135	0x3f1de7ee	0.6168202
136	0xbe07ec77	-0.13273798
137	0x3e806f57	0.25084946
138	0xbf8f4241	-1.1192094
139	0xbdbf1acc	-0.09331283
140	0xbf4a25c8	-0.789639
141	0x3e0ba9ea	0.13639036
142	0x3eb2a70e	0.34893078
143	0x3e999946	0.2999975

lstm.bias_ih_l2 f4 [24]
0	0x3f2af741	0.6678353
1	0x3f8313c2	1.0240405
2	0x3e4ea3ab	0.20179622
3	0xbe329cd9	-0.17442645
4	0x3d35ece9	0.04441539
5	0x3f3af921	0.7303639
6	0xbf3727d3	-0.7154514
7	0xbee6dc96	-0.4509017
8	0x3e73cd29	0.23808731
9	0x3e29ef73	0.16595249
10	0xbe084ddf	-0.13310955
11	0xbf82bb10	-1.0213337
12	0x3e01c42c	0.1267249
13	0xbe4bc49b	-0.19899218
14	0xbda3202b	-0.0796512
15	0xbe036e5c	-0.12835068
16	0xbb765701	-0.003758848
17	0x3eb0b7b4	0.34515154
18	0x3e0ee94c	0.13956183
19	0x3fae3def	1.3612651
20	0xbdca80b9	-0.09887833
21	0x3ec96576	0.3933522
22	0x3f1c1cca	0.6098143
23	0x3f3e0931	0.74232775

lstm.bias_hh_l2 f4 [24]
0	0x3eb23b58	0.348109
1	0x3f2833e9	0.6570421
2	0x3d8da96b	0.069170795
3	0xbdc86da8	-0.0978654
4	0x3ef1edd5	0.47251764
5	0x3f57f037	0.84350914
6	0xbee59f54	-0.4484812
7	0xbf153879	-0.58289295
8	0xbe8d912c	-0.2764982
9	0xbe0813e8	-0.13288844
10	0xbf500737	-0.8126101
11	0xbf7e7831	-0.9940215
12	0xbefce52d	-0.49393597
13	0x3c9abf3f	0.018890021
14	0x3e051540	0.12996387
15	0xbea514ff	-0.3224258
16	0xbe3509d4	-0.1767953
17	0xbd10a920	-0.03531754
18	0x3e102209	0.14075483
19	0x3f4ce627	0.80038685
20	0xbe3aaf88	-0.18231022
21	0x3e88fc0e	0.26754802
22	0x3efa13a1	0.488431
23	0x3f5294f7	0.8225855

lstm.weight_ih_l3 f4 [24, 6]
0	0x3e325c2d	0.17417975
1	0x3ebbe7cc	0.36700284
2	0x3f3c902d	0.73657495
3	0xbe6e3f3a	-0.23266307
4	0xbf558485	-0.83405334
5	0x3e524344	0.20533472
6	0x3dfab095	0.122407116
7	0x3ef8b028	0.48571897
8	0xbe828a66	-0.25496215
9	0x3f079086	0.529549
10	0x3e5ca595	0.2154754
11	0x3f015e54	0.5053456
12	0x3ecd20c9	0.40064076
13	0xbed0ae90	-0.4075818
14	0xbec53f5e	-0.38524908
15	0xbf81cb77	-1.0140218
16	0x3ecf3e62	0.40477282
17	0x3f277564	0.654135
18	0x3eca734c	0.3954109
19	0x3f4dbadf	0.8036327
20	0xbf0c0887	-0.5470051
21	0xbe48deac	-0.19616193
22	0x3f838bea	1.0277073
23	0x3dd9fa55	0.1064345
24	0xbd5adaa0	-0.053431153
25	0x40167171	2.350674
26	0xbe1dca04	-0.15409094
27	0x3f3d105f	0.73853105
28	0x3ebfec7e	0.37485117
29	0xbebebcb1	-0.37253335
30	0xbe9dac47	-0.307955
31	0xbf3e184f	-0.7425584
32	0x3ea56692	0.32304817
33	0xbf4a13d5	-0.7893651
34	0x3cb36ce7	0.021902515
35	0x3f1aac45	0.6041911
36	0x3fb80df1	1.4379255
37	0xbf014f61	-0.5051175
38	0x3f8972ea	1.0738194
39	0xbeaab4bd	-0.33341017
40	0xbf650358	-0.8945823
41	0x3dc97c8c	0.098382086
42	0xbeb7ee7b	-0.35924134
43	0x3faab86c	1.3337531
44	0xbcc73e83	-0.0243218
45	0xbe988ec4	-0.29796422
46	0x3e5b9236	0.21442494
47	0xbe0c61a6	-0.13709125
48	0x3f942844	1.1574788
49	0xbfea1eca	-1.8290646
50	0x3f0e9a37	0.55704063
51	0xbf432490	-0.76227665
52	0x3f1762e6	0.5913528
53	0x3e775a63	0.24155574
54	0x3f49a6d3	0.7877018
55	0x3e89274b	0.2678779
56	0x3eabc4b3	0.33548507
57	0xbec3e44c	-0.38260114
58	0x3f1c1975	0.60976344
59	0x3e6d716e	0.23187801
60	0x3e565d00	0.20933914
61	0x3efa1bef	0.48849437
62	0xbc5dfc99	-0.0135489935
63	0xbebfba59	-0.3744686
64	0xbe70cf0c	-0.23516482
65	0xbe8b2383	-0.2717553
66	0xbe869eb5	-0.2629296
67	0xbed75a64	-0.4206115
68	0x3dfdab69	0.123862095
69	0xbf9624b1	-1.1729947
70	0x3f2ac689	0.6670919
71	0x3f06cd80	0.5265732
72	0xbf45afb8	-0.7722125
73	0x3eda4555	0.4263102
74	0xbf4b051d	-0.7930468
75	0x3f075e93	0.52878684
76	0xbe63922c	-0.22223729
77	0xbf9a5b05	-1.2059027
78	0x3f2cf6e8	0.6756425
79	0xbf942db0	-1.1576443
80	0xbe3461ee	-0.17615482
81	0xbf3b582c	-0.73181415
82	0x3fb529cf	1.4153384
83	0x3fc946ff	1.5724791
84	0x3f484f89	0.7824636
85	0xbf86d8a2	-1.0534861
86	0x3fece064	1.8505979
87	0xbf6327b0	-0.88732433
88	0x3e8aa551	0.2707925
89	0x3faf6799	1.370349
90	0xbf91d9a4	-1.1394544
91	0x3fc33273	1.5249771
92	0xbf483c3e	-0.7821692
93	0xbc997b34	-0.018735506
94	0xbf5a0650	-0.8516588
95	0xbf4f8fdf	-0.81078905
96	0xbe99f374	-0.30068552
97	0x3fdb1170	1.7114697
98	0x3d85e4d7	0.06537788
99	0x3f357dc5	0.70895034
100	0xbe81b237	-0.2533128
101	0xbf6327a9	-0.8873239
102	0xbefbe884	-0.49200833
103	0xbcc2e040	-0.023788571
104	0x3f20440b	0.62603825
105	0x3f1dc5b3	0.6162979
106	0x3d9f094a	0.077654436
107	0x3f1d2358	0.61382055
108	0x3f422c76	0.7584909
109	0x3dbade5c	0.09124443
110	0x3f54cc1c	0.83123946
111	0xbe7fc62a	-0.24977937
112	0x3dfcc468	0.12342149
113	0x3f5b62ee	0.8569783
114	0x3e68552d	0.22688742
115	0x3f87cfe2	1.0610316
116	0xbf34ee2f	-0.7067594
117	0x3f2c5b5e	0.67326915
118	0x3e92b7c3	0.28655824
119	0x3f0b8a2b	0.545077
120	0x3f4c09db	0.7970254
121	0xc00e76bf	-2.2259977
122	0xbf1398a4	-0.57654786
123	0xbf2d9838	-0.6781039
124	0x3f99a057	1.2002057
125	0x3f8dccf4	1.1078172
126	0x3f4cf7a4	0.8006537
127	0x3f851d70	1.0399609
128	0xbf602f70	-0.87572384
129	0x3e673fe4	0.22582966
130	0x3f84c671	1.037306
131	0x3e883c6d	0.266086
132	0x3f266396	0.64995706
133	0x3ffd7326	1.9800766
134	0xbf1d5001	-0.614502
135	0x3f85d2ae	1.0454919
136	0x3e31deea	0.17370191
137	0xbf3f2726	-0.7466911
138	0x3e9d1c45	0.3068563
139	0xbf970045	-1.1796957
140	0x3e8a903a	0.2706316
141	0xbfb07e36	-1.3788517
142	0x3ebf571b	0.37371144
143	0x3f9a6c54	1.2064309

lstm.weight_hh_l3 f4 [24, 6]
0	0xbed436dc	-0.41448104
1	0xbd8493bc	-0.064734906
2	0x3f349fc1	0.70556265
3	0x3ef4dd9a	0.4782532
4	0x3e532b54	0.20621997
5	0xbef27b7c	-0.47359836
6	0xbf3af066	-0.7302307
7	0xbe38f9ba	-0.18064013
8	0x3eefe105	0.46851364
9	0x3ec36252	0.3816095
10	0x3e824c08	0.25448632
11	0x3ee75735	0.4518372
12	0x3ef3fc5f	0.4765348
13	0xbf4c5a6f	-0.7982549
14	0x3e6706ff	0.22561263
15	0x4004ae73	2.0731475
16	0x3f1dea13	0.61685294
17	0xbdde1c65	-0.108452596
18	0xbf55cf7f	-0.8351974
19	0xbf5f5864	-0.8724425
20	0x3f28cbe7	0.6593613
21	0x3c2c60da	0.010521138
22	0x3ec2b96f	0.380321
23	0xbef52f40	-0.4788761
24	0x3efa4e14	0.48887694
25	0xbe10aaf6	-0.14127716
26	0x3bd3b098	0.0064602606
27	0x3cab6b93	0.020925319
28	0xbe8b8639	-0.2725084
29	0xbfb927c0	-1.4465256
30	0xbca8aa27	-0.020588947
31	0xbe3b85f2	-0.18312815
32	0xbee60a9b	-0.44929966
33	0xbe8e328b	-0.27772936
34	0x3f2c7cbc	0.6737783
35	0xbe251298	-0.16120374
36	0xbe2b77ea	-0.16744962
37	0xbea6be60	-0.3256712
38	0x3f65e082	0.89795697
39	0xbf486a7d	-0.7828749
40	0xbe12765c	-0.14302963
41	0xbfa13bfe	-1.2596433
42	0xbf243c09	-0.64154106
43	0x3eeb9851	0.46014646
44	0xbe62fed2	-0.22167519
45	0x3e8ac47f	0.2710304
46	0xbe1d8eaa	-0.15386453
47	0x3f711fe8	0.9418931
48	0x3f7c6b9a	0.98601687
49	0xbc58b35a	-0.0132263545
50	0xbda6d5d7	-0.081462555
51	0x3f8725b5	1.0558382
52	0xbe874a51	-0.26423886
53	0xbf158e38	-0.58420134
54	0xbf5b8ac4	-0.85758615
55	0x3e0d62e6	0.13807258
56	0x3ef90057	0.48633072
57	0xbe78241c	-0.24232525
58	0xbd06b107	-0.03288367
59	0x3dc7cc8e	0.097558126
60	0xbecdf4c1	-0.40225795
61	0x3c3fc232	0.011704015
62	0xbeeb2803	-0.45928964
63	0xbeaccd34	-0.33750308
64	0xbe049003	-0.12945561
65	0x3e92a2a6	0.28639716
66	0x3e75274c	0.23940772
67	0x3f11fce6	0.5702652
68	0x3e56b50c	0.20967501
69	0xbf76ffb6	-0.96483934
70	0x3e8c58dc	0.27411544
71	0xbe227837	-0.15866171
72	0x3f33bd40	0.7021065
73	0xbf84c27c	-1.0371852
74	0xbf7520cc	-0.9575317
75	0x3fafafb2	1.3725493
76	0x3f85b20f	1.0444964
77	0xbe9c1436	-0.3048417
78	0x3f229fee	0.63525283
79	0xbf082cd5	-0.5319341
80	0xbd631387	-0.055438545
81	0x3f014b70	0.50505733
82	0xbdf0e5d1	-0.11762584
83	0x3e008e19	0.12554206
84	0x3e74a2a1	0.23890163
85	0xbeb96eab	-0.36217245
86	0x3d02eb78	0.03196284
87	0xbd612047	-0.054962423
88	0x3e9ee48f	0.3103375
89	0xbf285dff	-0.65768427
90	0xbed0b84b	-0.40765604
91	0x3efd7a7a	0.49507505
92	0xbe095f03	-0.1341515
93	0xbecaabbd	-0.3958415
94	0xbec0ea9a	-0.37678987
95	0x3f507ef2	0.81443703
96	0xbf0c323a	-0.5476414
97	0x3e8493a3	0.25893888
98	0x3eba604e	0.364016
99	0xbf11e273	-0.5698616
100	0xbf743be4	-0.95403886
101	0x3ea3f98c	0.32026327
102	0xbd890663	-0.06690671
103	0x3ec294ae	0.3800406
104	0x3ea1a8a8	0.31573987
105	0xbfc7167f	-1.555374
106	0xbf6d1ba8	-0.92620325
107	0x3d903d6b	0.070429645
108	0x3e7b85e2	0.24562791
109	0x3e1fe779	0.15615644
110	0x3f94be7c	1.1620631
111	0xbf6feac3	-0.9371759
112	0x3c9bba29	0.019009667
113	0x3de1db37	0.1102814
114	0xbf91786c	-1.1364875
115	0xbe6cf726	-0.23141155
116	0x3f42a391	0.7603083
117	0x3da5d1bd	0.08096645
118	0x3e5cb839	0.2155465
119	0x3f6bd4c9	0.9212156
120	0x3ef7ea68	0.48421025
121	0xbda81faa	-0.082091644
122	0xbce855b2	-0.028361175
123	0x3fbf70b7	1.4956273
124	0x3d42521a	0.04744158
125	0xbf60361b	-0.8758256
126	0xbf3bdf8d	-0.73387986
127	0xbf58132b	-0.8440425
128	0x3f9f748f	1.2457446
129	0x3e689bf2	0.22715738
130	0x3f07e260	0.53079796
131	0xbe6c168e	-0.23055479
132	0x3f0fa8f8	0.561172
133	0xbec87065	-0.3914825
134	0x3f05569a	0.5208527
135	0xbee48f94	-0.4464079
136	0xbf70dc5f	-0.9408626
137	0xbf594efa	-0.84886134
138	0x3dc73637	0.097271375
139	0x3d98285e	0.074295744
140	0xbbb6c4d9	-0.0055776653
141	0x3e223565	0.15840681
142	0x3d8a23e1	0.067451246
143	0xbd60f030	-0.05491656

lstm.bias_ih_l3 f4 [24]
0	0xbe4bc357	-0.19898735
1	0x3fb0dc1d	1.3817173
2	0x3dd6d091	0.10489
3	0x3ece4e9d	0.40294352
4	0x3e7a52cc	0.24445647
5	0xbe68530a	-0.22687927
6	0x3e4ec676	0.20192894
7	0xbee197a1	-0.44060996
8	0xbccd75df	-0.02508062
9	0xbf1db10d	-0.61598283
10	0xbfa50fb9	-1.2895423
11	0xbe19878e	-0.14993116
12	0x3e2e18b6	0.17001614
13	0xbe580797	-0.21096645
14	0x3e6340d1	0.22192694
15	0x3e62c400	0.2214508
16	0xbe925631	-0.28581384
17	0xbdd372dd	-0.10324643
18	0x3ef833f8	0.4847715
19	0x3f510a6f	0.81656545
20	0x3ee1cab1	0.44099954
21	0x3f3674f1	0.7127219
22	0x3d61a889	0.05509237
23	0x3d61e052	0.05514557

lstm.bias_hh_l3 f4 [24]
0	0xbea43adc	-0.32076156
1	0x3f80fadd	1.0076557
2	0x3e9cd09b	0.30627903
3	0x3ea0e427	0.31424066
4	0x3ed606ae	0.4180197
5	0xbefb080f	-0.49029586
6	0x3e660b6e	0.22465298
7	0xbf0d4823	-0.55188197
8	0x3dd5032b	0.10400995
9	0xbe1094f7	-0.14119326
10	0xbf1035ab	-0.5633189
11	0xbe81b592	-0.2533384
12	0xbecbf6f1	-0.3983684
13	0xbe9d7a54	-0.3075739
14	0x3ed02b46	0.40658015
15	0x3d312734	0.043250278
16	0x3e895823	0.26825055
17	0xbf1387dd	-0.57629186
18	0x3f082245	0.5317729
19	0x3fb08cef	1.379301
20	0x3e4783b2	0.19483832
21	0x3f60ed2b	0.8786189
22	0x3ecdb13e	0.40174288
23	0x3bf22e81	0.0073907976

lstm.weight_ih_l4 f4 [24, 6]
0	0xc066a86a	-3.6040292
1	0x3f92917f	1.1450652
2	0x3fab4cbb	1.3382791
3	0xbfb9ebb0	-1.4525051
4	0x3f4484f5	0.76765376
5	0x3f2ab57a	0.6668316
6	0xbf28f771	-0.66002566
7	0xbdf6e384	-0.12055114
8	0x3f60b19b	0.87771004
9	0xbd8f6c3c	-0.07003066
10	0x3fbe6536	1.4874637
11	0x3e7160cc	0.23572081
12	0xbf75ffbf	-0.9609336
13	0xbf465594	-0.7747433
14	0x3f898a68	1.0745363
15	0x3efed89e	0.4977464
16	0x3f84287f	1.0324858
17	0x3e905e9d	0.28197184
18	0xbe363bbe	-0.17796227
19	0x3e4043e4	0.18775898
20	0x3eab901b	0.3350838
21	0x3f27a502	0.65486157
22	0x3e4a05f4	0.19728833
23	0x3f1f327e	0.6218642
24	0xbf1381a0	-0.5761967
25	0x3fb20190	1.3906727
26	0x3f28971e	0.65855587
27	0xbf7c74fe	-0.98616016
28	0x3ef134af	0.47110507
29	0x3ed3df02	0.4138108
30	0xbe62e537	-0.22157751
31	0x3e816e61	0.25279525
32	0x3fa70340	1.3047867
33	0xbf8278b8	-1.019309
34	0x3f104039	0.56347996
35	0xbef021ef	-0.4690089
36	0xbba21a70	-0.0049469993
37	0x3f475a87	0.7787251
38	0xbf567075	-0.83765346
39	0xbe707dd2	-0.23485497
40	0x3f17c9cd	0.592923
41	0x3f6dc42e	0.9287747
42	0xbf58e47b	-0.84723634
43	0x3f0b279a	0.543573
44	0xbe87aa36	-0.26497048
45	0xbee9c773	-0.4565998
46	0xbf3ac00c	-0.7294929
47	0x3f3cf87a	0.73816645
48	0x3ebb9ddd	0.36643878
49	0x3f7ccc4c	0.9874923
50	0xbeb66b39	-0.3562868
51	0xbf54e431	-0.8316069
52	0xbeab764b	-0.33488688
53	0x3ec44c66	0.38339537
54	0xbf1fa1f9	-0.62356526
55	0x3f21915b	0.6311242
56	0xbe738d16	-0.23784289
57	0xbf10c052	-0.5654346
58	0xbf5cc8e1	-0.86244017
59	0x3ebf27a9	0.37334946
60	0xbe8c43c0	-0.2739544
61	0x3fedce80	1.8578644
62	0xbe0cc2af	-0.13746141
63	0xbf05084b	-0.5196578
64	0x3ebc2654	0.36747992
65	0x3ffc6016	1.9716823
66	0xbe2dda52	-0.16977814
67	0x3e70eb15	0.23527177
68	0xbddfa5c9	-0.10920293
69	0x3f0b33ca	0.543759
70	0x3e708582	0.23488429
71	0x3dc42dff	0.095790856
72	0x3f11b29a	0.5691315
73	0xc0447519	-3.069647
74	0xbee48127	-0.44629785
75	0x3f5bb314	0.85820127
76	0x3f0a21a0	0.5395756
77	0xbf58ac5b	-0.84637994
78	0x3d8bd9a7	0.06828623
79	0x3f838a64	1.0276608
80	0x3fc27c4d	1.5194184
81	0xbfb1efc5	-1.3901297
82	0xbf07c84a	-0.5303999
83	0xbd510642	-0.05103136
84	0x3ec9043a	0.39261037
85	0xbf2bfc29	-0.6718164
86	0xbf28d860	-0.6595516
87	0x3fa55b56	1.2918499
88	0x3f91e8e5	1.1399199
89	0xbc65bc6a	-0.014021972
90	0x3e22e40e	0.15907308
91	0xbf307ca2	-0.68940175
92	0xbfacb57d	-1.3492886
93	0x3f44d923	0.76893824
94	0x3f83236b	1.0245184
95	0x3f295c86	0.66156805
96	0xbd7f565a	-0.06233821
97	0xbfea83bf	-1.8321456
98	0xbde58205	-0.1120644
99	0x3f44d67a	0.76889765
100	0x3f1b595c	0.60683227
101	0xbef8e13f	-0.4860935
102	0xbea03728	-0.3129208
103	0x3fd916e2	1.6960108
104	0x3f47e13b	0.7807805
105	0xc01c1d31	-2.4392817
106	0xbf444e4c	-0.7668197
107	0x3c8ab3de	0.01693147
108	0xc040e0a9	-3.0137122
109	0x3f4d99f0	0.80313015
110	0x3f825e95	1.0185114
111	0xbf7c7f09	-0.9863134
112	0x3f16341c	0.5867326
113	0xbea8d56e	-0.32975334
114	0x3e8f2a9d	0.279622
115	0xbf8dbfbb	-1.1074136
116	0x39f18a98	0.00046070362
117	0x3f575a69	0.8412233
118	0x4004bb3e	2.0739284
119	0xbf63249a	-0.88727725
120	0xbfadad6e	-1.3568552
121	0xbe3e8b66	-0.18607864
122	0x3f8d7662	1.1051753
123	0x3e19ef86	0.15032777
124	0x3f9dd77c	1.2331386
125	0xbe957c1d	-0.29196253
126	0xbf84c647	-1.037301
127	0x3f37c604	0.7178652
128	0x3f39768b	0.7244651
129	0xbcee07c5	-0.02905644
130	0xbdc9b035	-0.09848062
131	0x3e8e3198	0.27772212
132	0xbfc432e6	-1.5328033
133	0x3f4e3fa0	0.80565834
134	0x3f647ad8	0.89249945
135	0xbf64a7dc	-0.89318633
136	0xbd76fba6	-0.060298584
137	0xbe131d19	-0.14366569
138	0x3e798dc6	0.24370489
139	0xbfacd347	-1.3501977
140	0x3f89bd9e	1.0760992
141	0x3def1e14	0.11675659
142	0x3fae0069	1.3593875
143	0xbf11bfb4	-0.5693314

lstm.weight_hh_l4 f4 [24, 6]
0	0xbebf2371	-0.37331727
1	0x3fd3f9ed	1.6560646
2	0x3fd2f233	1.6480163
3	0xbf60d83b	-0.8782994
4	0x3f160788	0.5860524
5	0x3fe0fbd1	1.7576848
6	0x3f63d7ba	0.8900105
7	0xbefc57e3	-0.49285802
8	0xbb41eaef	-0.0029589494
9	0x3ecf56a0	0.40495777
10	0xbd618576	-0.05505892
11	0xbf2edfb9	-0.68310124
12	0xbf8d6245	-1.1045614
13	0xbd763c85	-0.06011631
14	0x3db01467	0.085976414
15	0xbe896d30	-0.26841116
16	0xc00430d7	-2.065481
17	0xbe4689cd	-0.19388504
18	0x3f9eaf7b	1.2397302
19	0x3e754258	0.2395109
20	0x4003af5f	2.0575788
21	0xbf034130	-0.51271343
22	0x3fb1d43d	1.3892895
23	0x3c9ed061	0.019386472
24	0xbfa70aad	-1.3050133
25	0x3f086df6	0.5329279
26	0x3fc61e36	1.547797
27	0x3d9e97af	0.07743775
28	0x3cb41ac6	0.021985423
29	0x3f76ee3e	0.9645728
30	0x3f062b3f	0.5240974
31	0x3f50a8ef	0.8150777
32	0x3e85ab96	0.26107472
33	0x3eba16d3	0.36345538
34	0xbfe1b85f	-1.763439
35	0xbde210d6	-0.110383675
36	0xbf101b8b	-0.5629203
37	0x3bdce60a	0.00674129
38	0xbc66d1a8	-0.014088072
39	0x3f94c6ef	1.162321
40	0x3d00129f	0.03126776
41	0x3d00c1b0	0.031434715
42	0xbf13b0e7	-0.57691807
43	0xbbc428b1	-0.005986296
44	0x3f929a38	1.1453314
45	0x3ed5f6b7	0.4178979
46	0x3f1c1955	0.60976154
47	0x3e7d87b2	0.24758795
48	0x3f284aaf	0.6573896
49	0xbd811d3a	-0.06304403
50	0xbe838425	-0.25686756
51	0xbe9baf90	-0.3040738
52	0x3f4e79e8	0.80654764
53	0x3e9430b2	0.28943402
54	0xbed4ee3b	-0.41588005
55	0x3d0af364	0.03392352
56	0x3f8718b2	1.0554411
57	0xbe93f3f4	-0.2889706
58	0x3f516341	0.81792074
59	0x3e5f09e5	0.21781118
60	0xbf037178	-0.51345015
61	0xbeb1e6d1	-0.3474641
62	0x3f5e0332	0.86723626
63	0xbde71754	-0.11283746
64	0x3ecd9f4b	0.40160593
65	0xbe1cf189	-0.15326513
66	0xbf270e8f	-0.6525659
67	0x3f0c0b89	0.547051
68	0x3f06d321	0.5266591
69	0x3e4e2b31	0.20133664
70	0x3d50a7d3	0.0509413
71	0x3eeca7a2	0.46221644
72	0xbf0c4d62	-0.54805577
73	0x3e80fb59	0.25191763
74	0x3f2892e8	0.6584916
75	0x3e8e44b6	0.27786797
76	0x3f21bb5d	0.6317652
77	0xbee878fb	-0.454048
78	0xbeb78755	-0.35845438
79	0xbf33cac8	-0.70231295
80	0xbef5219e	-0.4787721
81	0xbebf497d	-0.37360755
82	0x3e5979b1	0.21237828
83	0xbe954e53	-0.2916132
84	0xbf4aac87	-0.79169506
85	0x3f8fbd7b	1.12297
86	0xbf4feb0d	-0.81218034
87	0xbea876fa	-0.32903272
88	0xbee7e784	-0.4529382
89	0x3f4078e5	0.7518447
90	0xbd69dc8c	-0.057095096
91	0x3ccc95ae	0.024973717
92	0xbf54d9da	-0.83144915
93	0x3d07180c	0.032981917
94	0xbf8fd97d	-1.1238247
95	0x3eba28e6	0.36359328
96	0xbf5b411e	-0.85646236
97	0x3ee5f091	0.449101
98	0xbeedf1c4	-0.46473515
99	0xbebafd94	-0.3652159
100	0xbe91955d	-0.28434268
101	0x3f6413d1	0.8909274
102	0xbe3433c1	-0.17597868
103	0x3e7a9339	0.24470223
104	0xbebc7ac0	-0.368124
105	0x3e24dc70	0.16099715
106	0xbf1c943b	-0.6116368
107	0xbf16477a	-0.58702815
108	0x3e9c4479	0.3052099
109	0x3f95bcf5	1.169829
110	0x3f5eecf8	0.87080336
111	0xbeaaf949	-0.33393314
112	0x3f2f9508	0.6858678
113	0x3faef62d	1.3668877
114	0x3f1a41d2	0.60256684
115	0xbfac09ae	-1.3440454
116	0xbe862767	-0.26201937
117	0x3f5a32fb	0.8523404
118	0xbebea754	-0.37237036
119	0xbfe3f0a9	-1.7807819
120	0xbf0473a7	-0.5173897
121	0xbdbc68bb	-0.09199663
122	0x3e118785	0.14211853
123	0xbf5192a1	-0.8186436
124	0xbfeb45b6	-1.8380649
125	0xbed2f00e	-0.41198772
126	0x3dfaa1aa	0.12237866
127	0x3d1674c4	0.03673245
128	0x3f49a8bf	0.7877311
129	0xbe70d830	-0.23519969
130	0x3ed50792	0.41607338
131	0xbf252e2e	-0.6452359
132	0xbf5174d5	-0.81818897
133	0x3e4b43e7	0.19850121
134	0x3fb3a685	1.4035193
135	0xbe20885c	-0.15677017
136	0x3f6d50bb	0.9270131
137	0xbdae7b15	-0.0851957
138	0x3f7397c6	0.9515346
139	0x3d8c6e04	0.06856921
140	0x3ebca60a	0.36845428
141	0x3f80d226	1.0064132
142	0x3ea8edc9	0.32993916
143	0xbfad7c3c	-1.3553538

lstm.bias_ih_l4 f4 [24]
0	0x3ea2216f	0.31666133
1	0x3f822b51	1.0169469
2	0x3fac0086	1.343766
3	0x3eba2293	0.36354503
4	0x3df23a8c	0.11827573
5	0x3f630cf0	0.88691616
6	0xbf2122e4	-0.62943864
7	0xbed0324f	-0.40663382
8	0xbf8e6743	-1.1125263
9	0xbeacaa55	-0.33723703
10	0xbf5e7870	-0.86902523
11	0xbf30e7e7	-0.69103855
12	0x3e93618b	0.28785357
13	0xbdb6259b	-0.088938914
14	0x3d75b1ff	0.059984203
15	0x3e1f5a4a	0.15561786
16	0x3e37d424	0.17952019
17	0x3e3510b9	0.1768216
18	0x3e8dafdf	0.27673241
19	0x3f73e22f	0.95267004
20	0x3f8684d4	1.0509286
21	0x3eccbd71	0.39988282
22	0x3ec12062	0.3772002
23	0x3f88d02b	1.0688528

lstm.bias_hh_l4 f4 [24]
0	0x3dbf9d6b	0.09356197
1	0x3f824eba	1.0180275
2	0x3faa913a	1.332557
3	0x3f003560	0.50081444
4	0x3e9739c0	0.29536247
5	0x3f09b27a	0.5378796
6	0xbf00fc94	-0.50385404
7	0xbea4abd3	-0.3216234
8	0xbf8dd70b	-1.1081251
9	0xbe27e2ac	-0.16395062
10	0xbf1c46d6	-0.6104559
11	0xbf1c721e	-0.6111163
12	0x3e79b78d	0.24386425
13	0x3ec962d8	0.39333224
14	0xbe9c964f	-0.30583426
15	0xbf09e9a2	-0.5387212
16	0xbe292255	-0.16517003
17	0xbea7a32b	-0.32741675
18	0x3f794285	0.97367126
19	0x3f590458	0.84772253
20	0x3f954680	1.166214
21	0x3f4ac403	0.7920534
22	0x3e044fc8	0.12921059
23	0x3f596d7d	0.8493269

lstm.weight_ih_l5 f4 [24, 6]
0	0x3e4a5524	0.19759041
1	0xbf8581f0	-1.0430279
2	0x3f493e80	0.7861099
3	0x3e9533e8	0.29141164
4	0xbeeae072	-0.45874363
5	0xbfa25101	-1.268097
6	0x3e92ac0d	0.2864689
7	0x3e137710	0.14400887
8	0x3f8f2eea	1.1186192
9	0xbe279043	-0.16363625
10	0x3d5c6627	0.053808358
11	0xbf4ca99b	-0.799463
12	0xbe12a1c7	-0.14319526
13	0x3e151c87	0.14561664
14	0xbf6139da	-0.879789
15	0x3f30403e	0.68848026
16	0xbea437bd	-0.32073775
17	0xbf523a2c	-0.82120013
18	0xbf96dcf5	-1.1786181
19	0x3e103986	0.14084443
20	0xbeb9c82c	-0.36285532
21	0x3ddee104	0.10882762
22	0xbfe2cf9b	-1.7719606
23	0x3f85dd09	1.045808
24	0x3f4cb5e1	0.79965025
25	0xbdabaa52	-0.083820954
26	0x3f114232	0.5674163
27	0xbf4e680b	-0.80627507
28	0x3e3a6976	0.18204293
29	0xbf6b4e1f	-0.9191608
30	0xbfdc9f11	-1.7236043
31	0xbe91acf1	-0.28452256
32	0x3f230478	0.63678694
33	0xbe1dddd3	-0.1541665
34	0x3ed905fb	0.42387375
35	0xbe6208d5	-0.22073682
36	0xbfa272d3	-1.2691292
37	0x3f6feb8d	0.93718797
38	0xbf154e2f	-0.58322424
39	0xbe97fd21	-0.2968531
40	0xbec3897e	-0.38190836
41	0x3fb3d1f9	1.4048454
42	0xbffc7aa0	-1.9724922
43	0x3fe18897	1.7619809
44	0xbde733be	-0.11289166
45	0xbf37b67c	-0.71762824
46	0xbf275a7d	-0.6537245
47	0x400fa11c	2.2442083
48	0x3f3cd840	0.7376747
49	0xbee50de6	-0.44737166
50	0x3f09aab6	0.5377611
51	0x3f0c7584	0.54866815
52	0x3f22a8eb	0.63539
53	0xbf497f9c	-0.7871034
54	0x3fb47ddc	1.4100909
55	0xbf6a5f68	-0.9155183
56	0xbe53f892	-0.20700291
57	0x3e60a7d6	0.21939024
58	0x3ea6deea	0.32591945
59	0xbf75429a	-0.9580475
60	0xbf69131f	-0.910448
61	0x3f923610	1.1422749
62	0xbf969732	-1.1764891
63	0xbe300eae	-0.171931
64	0xbf3fab1e	-0.7487048
65	0xbde83e7b	-0.11340042
66	0xbf203e9f	-0.6259555
67	0x3e21a90c	0.15787143
68	0xbf028fa2	-0.51000416
69	0x3d9dcafb	0.07704731
70	0x3f195bcc	0.59905696
71	0x3e8a70e2	0.27039248
72	0x3def4c6d	0.11684499
73	0xbdb22f39	-0.08700413
74	0x4033ecbb	2.811324
75	0x3f4c990c	0.7992103
76	0x3fad92d9	1.3560439
77	0xbda62e0b	-0.08114251
78	0xc0051908	-2.0796528
79	0xbec3e14b	-0.38257822
80	0xbf914056	-1.1347759
81	0xbebc9fa1	-0.36840537
82	0xbede31be	-0.43397325
83	0x3f6f2f92	0.9343196
84	0x3f649731	0.892932
85	0xbf3fd4ff	-0.7493438
86	0x3c3096e4	0.010778163
87	0x3f1fc7d5	0.62414294
88	0xbd15d5b3	-0.036580753
89	0xbffe5882	-1.987076
90	0xc002bba8	-2.0427036
91	0x3f579899	0.8421722
92	0xbfadd195	-1.3579584
93	0xbf0ba3d5	-0.5454686
94	0xbf74c770	-0.9561682
95	0x40199c11	2.4001505
96	0xbe4033d7	-0.18769775
97	0xbf778d9d	-0.9670046
98	0x3f888132	1.0664427
99	0x3f5d77aa	0.8651072
100	0x3ec9bf18	0.39403605
101	0xbeb55800	-0.354187
102	0xbf21c847	-0.63196224
103	0x3fd1ae76	1.6381366
104	0x3e141dd8	0.1446451
105	0xbfbb1a71	-1.4617444
106	0x3d391780	0.045188427
107	0x3f1318c5	0.5745967
108	0xbf3959c7	-0.72402614
109	0xbefad5a8	-0.48991132
110	0x3f4b5f40	0.79442215
111	0x3ee11564	0.43961632
112	0xbf8f6b03	-1.1204532
113	0x3e5956f9	0.21224584
114	0xc0084e31	-2.1297724
115	0xbe771a79	-0.24131192
116	0x3fa247a5	1.2678114
117	0x3e401fce	0.18762133
118	0xbed1326a	-0.40858775
119	0x3e89057a	0.2676199
120	0xbf1b8186	-0.6074451
121	0xbf232597	-0.6372923
122	0xbed1879a	-0.40923768
123	0x3f45a8a5	0.77210456
124	0xbf8f17b7	-1.1179112
125	0xbf88687a	-1.0656884
126	0xbf506870	-0.8140936
127	0xbdb405c9	-0.08790166
128	0xbf473541	-0.77815634
129	0x3e383e71	0.1799257
130	0xbfd9f69e	-1.7028387
131	0x3ed2a1f9	0.411392
132	0xbe882a1a	-0.2659462
133	0xbdcb9a13	-0.09941497
134	0xbea04fb7	-0.31310818
135	0xbf1770eb	-0.59156674
136	0x3f21ec36	0.63251054
137	0x3d6c2eff	0.057662006
138	0xbe26d62c	-0.16292638
139	0x3e630ead	0.22173567
140	0xbf37954a	-0.7171217
141	0x3f139e34	0.57663274
142	0xbcc3257f	-0.02382159
143	0xbf3b2a3c	-0.7311132

lstm.weight_hh_l5 f4 [24, 6]
0	0x3e20513f	0.15655993
1	0x401f73aa	2.4914346
2	0x3fe989d2	1.8245184
3	0xbd4e4139	-0.05035517
4	0xbdeccb89	-0.11562259
5	0xbde79126	-0.11306982
6	0x3f481371	0.78154665
7	0x3fadd78a	1.3581402
8	0xbd8da0fa	-0.069154695
9	0xbf2b7527	-0.66975635
10	0x3f344aeb	0.70426816
11	0x3df71664	0.120648175
12	0xbcfbbb5d	-0.03072899
13	0xbe3f7ddc	-0.18700355
14	0xbe8105c5	-0.25199714
15	0x3e68e5db	0.22743933
16	0x3f28d306	0.65946996
17	0x3e25f512	0.16206768
18	0xbd8f1f53	-0.069883965
19	0x3fb455cd	1.4088684
20	0x3f5226f0	0.82090664
21	0xbf8d597b	-1.1042932
22	0xbf7b90a6	-0.9826759
23	0x3f5441af	0.82912725
24	0xbdcc9a81	-0.09990407
25	0x3ef76402	0.48318487
26	0x3f804b81	1.0023042
27	0xbf42dbf0	-0.7611685
28	0xbecc3747	-0.39885923
29	0xbf13d413	-0.57745475
30	0x3ea3f1a9	0.3202031
31	0xbf5d7e54	-0.86520886
32	0xbcab33ad	-0.020898664
33	0x3e1521c7	0.14563666
34	0x3dcd6bc4	0.1003032
35	0x3f8bc2ef	1.0918864
36	0xbe77642b	-0.24159305
37	0x3ec0e8ca	0.37677604
38	0x3e23f90b	0.16012971
39	0xbed7245b	-0.42019925
40	0xbfde744e	-1.7379243
41	0xbf7bc872	-0.9835273
42	0xbfddbcb7	-1.7323216
43	0xbec257f4	-0.37957728
44	0xbf08eb8e	-0.5348443
45	0xbe595e4d	-0.21227379
46	0xbf31faff	-0.69523615
47	0x3f8b9fa4	1.0908093
48	0x3f5a775f	0.85338396
49	0xbf1236f7	-0.5711512
50	0xbf273f65	-0.6533111
51	0x3f0e6bcb	0.5563323
52	0x3f015816	0.50525033
53	0xbe9412dd	-0.28920642
54	0xbf06b70c	-0.5262306
55	0xbe13b786	-0.14425477
56	0x3ec00c74	0.375095
57	0xbf25a418	-0.6470351
58	0xbf590abe	-0.84782016
59	0xbf33c6b6	-0.70225084
60	0xbf861667	-1.0475587
61	0x3dfaac4d	0.12239895
62	0x3e3aa68a	0.18227592
63	0xbe8832eb	-0.26601347
64	0xbe94b2d8	-0.29042697
65	0x3e67fd4a	0.22655216
66	0x3f9399c5	1.1531302
67	0xbe48c2c3	-0.19605546
68	0x3dda43d7	0.10657471
69	0xbdaa297a	-0.08308692
70	0xbe5a9a92	-0.21348026
71	0x3e467ae1	0.19382812
72	0xbf38d14e	-0.72194374
73	0x3edeb76c	0.43499315
74	0xbeab4243	-0.3344899
75	0x3f6a9f60	0.91649437
76	0x3f9c7424	1.2222943
77	0x3f81a716	1.0129116
78	0x3e9dfda2	0.3085757
79	0x3f701ba6	0.9379219
80	0x3f91545f	1.1353873
81	0x3de5e60a	0.11225517
82	0xbdd34b40	-0.10317087
83	0xbf44423a	-0.76663554
84	0x3f4660ad	0.77491266
85	0x3f36444e	0.71197975
86	0x3e88c958	0.26716113
87	0x3ddb601c	0.10711691
88	0x3ed5c791	0.4175382
89	0xbdd87891	-0.10569871
90	0x3e525cff	0.20543288
91	0x3f162087	0.5864338
92	0x3f18300e	0.59448326
93	0xbef58f8b	-0.47961077
94	0x3ead1138	0.338022
95	0xbe4f750c	-0.20259494
96	0xbfde1651	-1.735056
97	0x3f330ba7	0.69939655
98	0xbe79527b	-0.2434787
99	0x3ef50bc6	0.47860545
100	0xbe761933	-0.2403305
101	0xbecc285b	-0.3987454
102	0xbf0c5730	-0.5482054
103	0xbe27defa	-0.16393653
104	0x3e8f88d8	0.2803409
105	0xbe719fb3	-0.23596077
106	0xbf59893e	-0.8497504
107	0xbe526c79	-0.20549192
108	0xbf9e96a8	-1.2389727
109	0x3f8c586f	1.0964488
110	0x3f8ee5eb	1.1163915
111	0x3e642e41	0.2228327
112	0xbeb4cf56	-0.35314435
113	0x3e0251a6	0.12726459
114	0xbf7594e8	-0.9593034
115	0x3db48d51	0.088160165
116	0x3ecc2e15	0.39878908
117	0x3f38f300	0.7224579
118	0xbea14ec1	-0.31505397
119	0x3e1a46fa	0.15066138
120	0x3f2795df	0.6546306
121	0xbe676a92	-0.22599247
122	0x3f0c2a5c	0.54752135
123	0xbf145d2a	-0.5795466
124	0x3ea6f5a5	0.32609287
125	0x3987b6aa	0.00025885302
126	0x3f18627c	0.59525275
127	0x3f26b9ba	0.65127146
128	0x3f2659e5	0.6498092
129	0xbf35ef3c	-0.7106817
130	0xbf5b712c	-0.8571956
131	0x3ee830da	0.4534977
132	0xbeb4a448	-0.35281587
133	0xbdd114ed	-0.102090694
134	0x3f416681	0.75547034
135	0xbf34eeba	-0.7067677
136	0x3ef0b0fa	0.47010022
137	0xbe35efaa	-0.17767206
138	0x3edb326f	0.42811915
139	0xbe86b58a	-0.26310378
140	0x3f83b509	1.0289623
141	0xbeca0d9c	-0.39463508
142	0x3f250d51	0.64473444
143	0xbf0b3335	-0.5437501

lstm.bias_ih_l5 f4 [24]
0	0x3f952a86	1.1653602
1	0x3f25103a	0.64477885
2	0xbcea2528	-0.02858217
3	0x3ee29387	0.4425318
4	0x3f2af2e5	0.6677688
5	0x3f0b07a2	0.5430852
6	0xbda6630d	-0.08124361
7	0xbf075e65	-0.5287841
8	0x3d008ea3	0.03138603
9	0xbc5de7eb	-0.013544063
10	0xbe75dd5e	-0.24010226
11	0x3f413307	0.75468487
12	0x3eefc666	0.46831053
13	0xbee4b38e	-0.4466824
14	0xbc197aa9	-0.009367623
15	0xbeb53cfd	-0.35398093
16	0x3d92c206	0.07165913
17	0x3d9e5944	0.0773187
18	0x3f4c73b3	0.79864043
19	0x3ef6d2fb	0.4820784
20	0x3c6d338e	0.014477624
21	0x3f7ba9ee	0.9830617
22	0x3f954603	1.1661991
23	0x3e195949	0.14975466

lstm.bias_hh_l5 f4 [24]
0	0x3f5ae5b1	0.8550673
1	0x3da40599	0.0800888
2	0x3e60a77e	0.21938893
3	0x3ed1f146	0.4100439
4	0x3f955633	1.1666931
5	0x3d7bb2a2	0.061449654
6	0xbf2235b7	-0.6336321
7	0x3e0d0530	0.1377151
8	0x3e74b10d	0.23895665
9	0x3ecc4bd6	0.39901608
10	0xbe9c660b	-0.30546603
11	0x3edf096c	0.43561876
12	0x3e940644	0.2891103
13	0xbdac8627	-0.08424025
14	0xbc693c01	-0.014235497
15	0xbeea42db	-0.45754132
16	0xbeb2b9b8	-0.34907317
17	0x3d807dc4	0.06273988
18	0x3fa110f1	1.2583295
19	0x3f0a8755	0.5411275
20	0x3e1f7cc5	0.1557494
21	0x3f343b42	0.7040292
22	0x3efd2616	0.4944312
23	0x3e9bbf8c	0.30419576
