Best model weights/LSTM GA Best Model/0.100630.training_2043_best_model.pth (torch, 8586 bytes, 29 tensors)

lstm.weight_ih_l0 f4 [16, 1]
0	0xbf1a7172	-0.60329354
1	0xbf234276	-0.63773286
2	0x3fbe3a93	1.4861625
3	0x3e8ad7f8	0.27117896
4	0x3f8053f0	1.0025616
5	0xbd38a362	-0.04507769
6	0xbe6ee515	-0.23329575
7	0xbdd8be17	-0.10583132
8	0xbf2a82ff	-0.66606134
9	0xbd469b68	-0.04848805
10	0xbfbd55cc	-1.4791808
11	0x3f3d6f35	0.73997813
12	0x3fc439b8	1.5330114
13	0xbe9986e9	-0.2998574
14	0x4001b99d	2.026954
15	0xbeba6281	-0.36403278

lstm.weight_hh_l0 f4 [16, 4]
0	0xbeb04e46	-0.34434718
1	0x3f0db994	0.55361295
2	0x3eb424a2	0.351842
3	0x3ea8182b	0.3283094
4	0xbfa46c56	-1.2845562
5	0x3ed1a9a8	0.4094975
6	0xbfc53639	-1.5407172
7	0xbede264e	-0.433886
8	0x3fbf015b	1.4922289
9	0xbf65f1ef	-0.89822286
10	0x3e00a455	0.12562688
11	0x3fa715c6	1.305352
12	0x3f56cd64	0.8390715
13	0xbe478ea2	-0.19488004
14	0xbf5d1d84	-0.8637316
15	0x3c0e12aa	0.008671442
16	0x3d383d86	0.04498055
17	0x3e8a2cb1	0.26987222
18	0x3ec05a3f	0.37568852
19	0x3cae6d36	0.02129231
20	0x3f918301	1.1368104
21	0x3f5de753	0.866811
22	0xbf4ee4fb	-0.80818146
23	0xbea3e161	-0.32007888
24	0x3f8baddb	1.0912431
25	0x3ec7ab6f	0.3899798
26	0x3d04f430	0.032459438
27	0xbde62b82	-0.11238767
28	0x3f1eb6d3	0.6199772
29	0xbe08d060	-0.13360739
30	0x3ef3ea8c	0.47639883
31	0xbefcf3fe	-0.494049
32	0x3e8292b3	0.25502548
33	0x3f2e2481	0.6802445
34	0x4023e6f1	2.5609705
35	0x3fb179b3	1.3865265
36	0xbd33629a	-0.043795206
37	0xbfa46d8d	-1.2845932
38	0x3fd3a0a4	1.6533399
39	0x3f2b7f9b	0.66991585
40	0xbef3668b	-0.47539172
41	0xbe9535c1	-0.29142573
42	0xbedb20cc	-0.4279846
43	0xbe8a5d85	-0.27024475
44	0xbe9cf931	-0.30658868
45	0xbed02072	-0.40649754
46	0x3facd8cc	1.3503661
47	0xbee36a54	-0.4441706
48	0xbf6a214a	-0.91457045
49	0x3fe601a3	1.796925
50	0x3f59cc7c	0.85077643
51	0x400e7ceb	2.2263744
52	0xbf946c23	-1.1595501
53	0x3fa9c4ac	1.3263144
54	0xbff6fe53	-1.9296364
55	0xbd48cb1b	-0.04902182
56	0x3faf5b16	1.3699672
57	0xbf4e5bb0	-0.80608654
58	0x3e50c8a2	0.20389035
59	0x3f911be3	1.1336635
60	0x3f193870	0.5985174
61	0xbe4961da	-0.19666234
62	0xbf4d2237	-0.8013033
63	0xbec5e69b	-0.386525

lstm.bias_ih_l0 f4 [16]
0	0xbf049ca3	-0.5180151
1	0xbf022ed3	-0.508527
2	0x3fdd8027	1.7304734
3	0xbec3e2df	-0.38259026
4	0x3f202a18	0.6256423
5	0xbf1351c0	-0.57546616
6	0x3e9366d2	0.28789383
7	0xbe7a2e41	-0.24431707
8	0x3d74c648	0.05975941
9	0x3eac96f5	0.3370892
10	0x3ea1a3c0	0.31570244
11	0x3bd6d615	0.0065562823
12	0xbd1b9f5e	-0.03799378
13	0xbf59e35f	-0.85112566
14	0x401efd2b	2.4842021
15	0xbe0347bf	-0.12820338

lstm.bias_hh_l0 f4 [16]
0	0x3d81f7ca	0.0634609
1	0xbeb9912f	-0.3624358
2	0x3fbc9709	1.4733592
3	0x3e824762	0.25445086
4	0x3d5f55e2	0.054525264
5	0xbf2f1440	-0.68390274
6	0x3ee30fdb	0.44348034
7	0xbc223c35	-0.00990205
8	0x3f2f5a79	0.68497425
9	0xbddf3676	-0.108990595
10	0x3edbe0cc	0.42944944
11	0xbeafa6d1	-0.34306958
12	0xbd94e80b	-0.07270821
13	0xbf17c4ab	-0.59284467
14	0x3fe375b5	1.7770296
15	0x3e8efc6e	0.27926964

lstm.weight_ih_l1 f4 [16, 4]
0	0x3f43164d	0.76205903
1	0x3f785222	0.97000325
2	0x4005597f	2.0835874
3	0x3f258430	0.6465483
4	0x3f81628c	1.0108199
5	0xbfb433f1	-1.4078351
6	0xbf8f3f78	-1.1191244
7	0x3e9e1b41	0.30880168
8	0xbf3f97c9	-0.7484098
9	0xbf47c2b0	-0.78031445
10	0x3d868223	0.0656779
11	0x400624c6	2.0959945
12	0x3f1e8db9	0.61935
13	0xbf4460ef	-0.7671041
14	0x3f5df1e4	0.8669722
15	0x3f844880	1.0334625
16	0x3f2dd57a	0.67903864
17	0x3f526323	0.8218252
18	0x40266bb9	2.6003249
19	0x3f9b24ec	1.2120643
20	0x3fdc99d6	1.7234447
21	0x3f79aba7	0.97527546
22	0x408d809e	4.4219503
23	0x3f22f5dc	0.636564
24	0x3ee81adb	0.4533299
25	0xbde5be4c	-0.11217937
26	0xbf2e944c	-0.68195033
27	0x3f0ed80e	0.55798423
28	0xbda9b2a2	-0.08286025
29	0x3f2559c9	0.64590126
30	0x40268a88	2.6022053
31	0x3d952a19	0.0728342
32	0x3f3ded78	0.74190474
33	0x3e3294c2	0.17439559
34	0x3f866cf8	1.0502005
35	0x3f3ac65a	0.7295891
36	0x3f3d46eb	0.7393634
37	0x3f6a90de	0.916273
38	0x40029787	2.0404985
39	0x3efc24c1	0.4924679
40	0x3f44c58e	0.76863945
41	0x3f13c914	0.57728696
42	0x4018d01c	2.387702
43	0x3f2d4504	0.67683434
44	0xbf8b55ab	-1.0885519
45	0xbf13c9c2	-0.57729733
46	0xc0223ac2	-2.5348363
47	0xbf01ad78	-0.5065532
48	0x3f569210	0.83816624
49	0x3f84acf4	1.0365281
50	0x40269208	2.602663
51	0x3f8e6d36	1.1127079
52	0x3f02678e	0.5093926
53	0xbed7e9b9	-0.42170504
54	0xbf7e140f	-0.99249357
55	0x3efac0ed	0.48975316
56	0xbf1cc4d2	-0.61237824
57	0xbf266c4a	-0.65008986
58	0xbfca7dfd	-1.5819699
59	0x403c70bf	2.9443815
60	0x3f21d08c	0.6320884
61	0xbf672b36	-0.9030031
62	0x3ea53551	0.3226724
63	0x3f4e58ba	0.80604136

lstm.weight_hh_l1 f4 [16, 4]
0	0xbf4f8000	-0.8105469
1	0xbe54e5a7	-0.2079073
2	0x3e04dd0b	0.12974946
3	0x3f0e5d06	0.5561069
4	0x3e85cfb0	0.26135015
5	0x3fe1ed34	1.7650514
6	0x3f46f6e9	0.77720505
7	0xc008e6e0	-2.1390915
8	0xbf388e5d	-0.7209223
9	0x3fd7de20	1.6864662
10	0xbd38f8f4	-0.045159295
11	0xbe6f9660	-0.23397207
12	0x3f5b135a	0.85576403
13	0xbfd10796	-1.633044
14	0xbcd39f48	-0.025832787
15	0x3ed66bb6	0.41879052
16	0xbef15603	-0.47135934
17	0x3f635d41	0.8881417
18	0x3def56d8	0.11686486
19	0x3ec7c30d	0.39016
20	0x3f0ee7de	0.5582255
21	0x3e37c87d	0.17947574
22	0x3f67bb3e	0.90520084
23	0xbf757ce3	-0.95893687
24	0x3eb83e08	0.35984826
25	0x3f17452c	0.5908992
26	0x3db80161	0.08984638
27	0xbf6cf53f	-0.92561716
28	0xbeb3d7b9	-0.3512552
29	0xbf33d7f1	-0.70251375
30	0xbee51229	-0.44740418
31	0xbf2a8d2f	-0.6662168
32	0x3e61f6f6	0.22066864
33	0x3e995935	0.29950872
34	0xbf6c9def	-0.9242849
35	0x3eab7ccd	0.33493653
36	0xbe7a6992	-0.24454334
37	0xbf430752	-0.76183045
38	0xbf940d25	-1.1566511
39	0xbefe2509	-0.4963763
40	0x3ea5cd0e	0.32383007
41	0x3e14e7e9	0.14541592
42	0xbe8f3504	-0.27970135
43	0xbe4278e6	-0.18991432
44	0x3defd30d	0.117101766
45	0x3f59b8eb	0.8504779
46	0x3f3b9719	0.7327743
47	0xbf41fb67	-0.75774235
48	0x3ddece69	0.10879213
49	0x3f2e32ff	0.68046564
50	0x3ea1a497	0.31570885
51	0xbf252b96	-0.6451963
52	0x3f4fbf85	0.8115161
53	0x3f84664d	1.034372
54	0xbb89a15f	-0.004200145
55	0xbfa9eaf9	-1.3274833
56	0x3f318578	0.6934428
57	0x401d32ae	2.4562182
58	0xbfa4cad8	-1.2874403
59	0xbf55b7ca	-0.83483565
60	0x3f48a7f8	0.783813
61	0xbf3efda5	-0.7460578
62	0x3d914603	0.07093432
63	0xbdd01780	-0.10160732

lstm.bias_ih_l1 f4 [16]
0	0x3c776b4d	0.015101266
1	0x3f2dbb32	0.6786376
2	0x3ee114ec	0.43961275
3	0x3f15b5af	0.5848035
4	0xbea639c4	-0.32465947
5	0xbf802356	-1.0010784
6	0xbd95e62c	-0.073192924
7	0xbf90b55f	-1.130535
8	0x3f0af821	0.54284865
9	0xbeb0e562	-0.34550005
10	0x3cafd3c4	0.021463282
11	0xbdb60c04	-0.088890105
12	0xbef0f411	-0.47061208
13	0x400e4035	2.222669
14	0x3f13e3bb	0.57769364
15	0x3fc7b483	1.5601963

lstm.bias_hh_l1 f4 [16]
0	0x3d1a7fe0	0.037719607
1	0x3f3d6ca2	0.73993886
2	0x3e9e263b	0.30888543
3	0x3f6f0c30	0.9337797
4	0xbd827e17	-0.06371706
5	0xbf671bfc	-0.90277076
6	0x3e74216d	0.23840876
7	0xbf03f3a0	-0.5154362
8	0x3f15266b	0.58261746
9	0x3e51c0c1	0.20483686
10	0xbe044950	-0.12918591
11	0xbde56ee8	-0.11202794
12	0x3eaf88a8	0.34283948
13	0x4010b2bb	2.2609088
14	0x3f351b90	0.7074518
15	0x3f5b6b0d	0.8571022

lstm.weight_ih_l2 f4 [16, 4]
0	0xbe25b3cc	-0.16181868
1	0x4001e6e0	2.0297165
2	0xbe8141d5	-0.25245538
3	0xbf13e95e	-0.57777965
4	0x3ea39ff7	0.3195798
5	0x3ff8eda3	1.9447521
6	0x3d279efd	0.040923107
7	0xc02d2394	-2.7052965
8	0x3f6dfc1b	0.9296281
9	0xbe4f758b	-0.20259683
10	0xbf817f80	-1.0117035
11	0xbfa0e943	-1.2571186
12	0x3ecb9633	0.3976303
13	0x404c5fa1	3.1933367
14	0xbf0900ec	-0.5351703
15	0xbf32badc	-0.69816375
16	0x3f262517	0.64900345
17	0x40964645	4.696078
18	0x3da900db	0.08252116
19	0xbf826f0f	-1.0190142
20	0xbed7bcf0	-0.42136335
21	0xbf8cff01	-1.1015321
22	0xbeb5124e	-0.35365528
23	0xbe849a45	-0.25898948
24	0xbeaaf3a9	-0.33389023
25	0x3e0e4e83	0.13897137
26	0x3f6711bd	0.9026144
27	0x3ed9044a	0.42386085
28	0xbfa04377	-1.2520589
29	0xbf32b87d	-0.69812757
30	0xbf3b6889	-0.73206383
31	0x3f86304b	1.0483488
32	0xbebaadfc	-0.36460865
33	0xbfaf0ba9	-1.3675433
34	0xbfb564c4	-1.4171376
35	0x3ec83a51	0.39106992
36	0xbf31027c	-0.69144416
37	0xbf71a0c6	-0.94385946
38	0xbfd38894	-1.6526055
39	0x3fff8144	1.9961324
40	0xbfbabaa1	-1.4588205
41	0xbfb8ac27	-1.4427537
42	0xbf60d6e2	-0.87827885
43	0x40127d7b	2.2889087
44	0xbd37d770	-0.04488319
45	0xbf63fdfe	-0.89059436
46	0xbfb0e643	-1.382027
47	0x3fd924f4	1.6964402
48	0xbf13e1e2	-0.57766545
49	0x3ff96ae5	1.9485747
50	0x3ee9bc33	0.45651397
51	0xbf789dbe	-0.97115695
52	0x3f7bea7f	0.9840469
53	0x4000e48c	2.0139494
54	0x3f9b19dd	1.2117268
55	0xc04bd6d7	-3.1849878
56	0x3faf44fa	1.3692925
57	0xbecdf76d	-0.40227833
58	0xbe8a6de5	-0.27036968
59	0xbf977ba2	-1.1834605
60	0x3eff88bf	0.49909016
61	0x3f94b0bd	1.1616436
62	0xbfb04675	-1.3771502
63	0xbe900161	-0.28126052

lstm.weight_hh_l2 f4 [16, 4]
0	0xc009791d	-2.1480172
1	0xbfb1cf49	-1.3891383
2	0xbdbef871	-0.0932473
3	0x3fbb9150	1.4653721
4	0xbf8efafe	-1.1170347
5	0x40005654	2.005269
6	0xbfb5f1de	-1.4214437
7	0x3f20ca31	0.6280852
8	0x3f9d1e54	1.227488
9	0x4010fcfb	2.2654407
10	0x3ee3606a	0.44409496
11	0x3fc6f7af	1.5544337
12	0xc053bc8d	-3.3083832
13	0x4041c9f6	3.0279517
14	0xbfa4ead3	-1.2884163
15	0x3f835e8f	1.0263232
16	0x3f4c5806	0.79821813
17	0xbfc4f377	-1.53868
18	0xbe4a5248	-0.1975795
19	0xbf5d4a92	-0.8644191
20	0x3fb25e35	1.3935
21	0x3cde73c4	0.02715481
22	0x3f14ac83	0.5807573
23	0xbd8089bc	-0.06276271
24	0x3facd578	1.3502645
25	0xbef49da0	-0.47776508
26	0x3d89891f	0.06715607
27	0x3e7d5fb6	0.24743542
28	0x3ed2fabb	0.41206917
29	0x3ec9c560	0.39408398
30	0x4006fab4	2.1090517
31	0x3fa88038	1.3164129
32	0x3ee9e0d1	0.45679334
33	0x3e464365	0.19361646
34	0xbf3077f6	-0.68933046
35	0x3f056fdf	0.52123827
36	0xbf73fa2c	-0.95303607
37	0xbf4388c5	-0.7638057
38	0x3f28d85c	0.6595514
39	0x3e07f36b	0.1327645
40	0xbf0088f6	-0.50208986
41	0xbe9b9be5	-0.30392376
42	0xbe9a32f8	-0.3011701
43	0xbf20401e	-0.62597835
44	0xbf194093	-0.5986416
45	0xbfb096a2	-1.379597
46	0x3d3606e5	0.04444017
47	0xbf9409f1	-1.1565534
48	0xbf6040c3	-0.8759882
49	0xc01b6616	-2.4281058
50	0x3ef12810	0.47100878
51	0xbf1d24f2	-0.613845
52	0xbf33197c	-0.6996076
53	0x3c9c7d96	0.019102853
54	0xbfcbf282	-1.5933383
55	0xbf1cfa92	-0.6131984
56	0x3fd9c7c2	1.7014086
57	0x3ee7bb19	0.45259932
58	0x3f39c45d	0.7256525
59	0x4056a43f	3.3537748
60	0xc04bc1b2	-3.1836972
61	0x40044d8e	2.0672336
62	0xbf1b7e68	-0.60739756
63	0x3fafc52a	1.3732045

lstm.bias_ih_l2 f4 [16]
0	0xbf7f9b67	-0.998465
1	0x3db371c1	0.08761931
2	0x3f6dc34b	0.9287612
3	0x3b837f85	0.0040130042
4	0xbe8d9f1b	-0.2766045
5	0xbef19637	-0.47184917
6	0xbf63f2a7	-0.89042133
7	0xbd70def4	-0.058806375
8	0x3e4e5bb6	0.20152172
9	0x3f519539	0.8186832
10	0xbead60a5	-0.33862796
11	0x3e5042b0	0.2033794
12	0xbfb510b4	-1.4145722
13	0x3ed06370	0.40700865
14	0x3f91abbe	1.1380537
15	0x3f85c1b9	1.0449744

lstm.bias_hh_l2 f4 [16]
0	0xbf784e43	-0.9699442
1	0x3f58c639	0.84677464
2	0x3f79bae5	0.97550803
3	0xbc4be8c7	-0.012445635
4	0xbf30c802	-0.6905519
5	0xbf44f572	-0.7693702
6	0xbf441f62	-0.76610386
7	0xbed3c4a1	-0.41360953
8	0x3f39b807	0.7254643
9	0x3f6f6a38	0.9352145
10	0xbe07b538	-0.13252723
11	0x3e975c43	0.29562578
12	0xbf710038	-0.9414096
13	0x3ef5ea58	0.48030353
14	0x3f2625a1	0.6490117
15	0x3fa2c4e5	1.2716337

lstm.weight_ih_l3 f4 [16, 4]
0	0xbfd0a01f	-1.6298865
1	0xbf9e43e5	-1.236447
2	0x3f77d567	0.9681
3	0xbf1976e5	-0.59947044
4	0x3fe37b08	1.7771921
5	0x3f897d37	1.0741338
6	0x3f7aa165	0.9790252
7	0x3f81ba56	1.013499
8	0xbe637004	-0.222107
9	0x3e5dab7e	0.2164745
10	0x405c7331	3.4445307
11	0x3fe3f696	1.7809627
12	0xc010a2c2	-2.259934
13	0xbf2c0572	-0.6719581
14	0xbd93f6a9	-0.07224781
15	0x3f84a383	1.03624
16	0xbf35384d	-0.70789033
17	0xbf897a6a	-1.0740483
18	0x401423d7	2.3146875
19	0x3ed9605b	0.42456326
20	0x402f3954	2.737874
21	0x3ff2cdc5	1.8969046
22	0x3ed310c2	0.41223723
23	0x3ff2bf8a	1.8964703
24	0x3d0c2ec7	0.034224298
25	0x3dc68a0a	0.096942976
26	0x40135b96	2.302465
27	0x3f76a2bb	0.96342057
28	0xc01e2ab3	-2.4713562
29	0xbfd0cdef	-1.6312846
30	0x3f4ac047	0.7919964
31	0xbf36f12e	-0.7146176
32	0x3f8a73da	1.0816605
33	0x3f3c526e	0.7356328
34	0x3f1dbdf7	0.6161799
35	0x3fd6c662	1.6779292
36	0x3f5fba21	0.87393385
37	0x3ecbeae6	0.3982765
38	0xbfc28b5d	-1.519878
39	0xbf188ef9	-0.5959316
40	0x3dd71c2f	0.105034225
41	0x3d73f4e8	0.059559733
42	0xbfc5ec2a	-1.5462697
43	0xbff0d23e	-1.8814161
44	0xbf0810b8	-0.5315051
45	0xbdc1d6c4	-0.094647914
46	0xbffa754f	-1.956705
47	0xbfc08a6e	-1.5042245
48	0xc00831e5	-2.1280453
49	0xbf36b3e7	-0.7136826
50	0x3fd11b78	1.6336508
51	0xbf48ca35	-0.78433543
52	0x4026bd20	2.6052933
53	0x3f19a968	0.6002412
54	0x3fad6878	1.3547506
55	0x3f608150	0.87697315
56	0xbeb11b98	-0.34591365
57	0x3f34a44f	0.70563215
58	0x40243dd7	2.5662744
59	0x3fb3ce29	1.404729
60	0xc0066d4c	-2.100421
61	0xc01528fe	-2.330627
62	0x3e866c8f	0.262547
63	0xbece17ec	-0.40252626

lstm.weight_hh_l3 f4 [16, 4]
0	0xbee8a93b	-0.45441613
1	0xbe96f7d6	-0.2948596
2	0x3e89f35d	0.26943484
3	0xbe93fe53	-0.2890497
4	0xbe47d156	-0.19513449
5	0xc0007ed4	-2.007741
6	0x3e24317c	0.16034502
7	0x3ef43212	0.4769445
8	0xbe3b3b5a	-0.1828436
9	0x3db368d9	0.087602325
10	0x3e1990da	0.14996663
11	0xbfd3b08a	-1.653825
12	0x3fba2e46	1.4545372
13	0xbe3a6d35	-0.18205722
14	0xbff2c467	-1.8966187
15	0x3db708f9	0.08937258
16	0xbece7a74	-0.403278
17	0xbf125e51	-0.57175165
18	0x3f0c7250	0.5486193
19	0xbf0641d6	-0.5244421
20	0x3f8f6264	1.1201901
21	0x3e5f35b8	0.21797836
22	0xbf320a3a	-0.69546854
23	0xbdf05139	-0.11734242
24	0xbe6f780a	-0.23385635
25	0xbfd7f796	-1.6872432
26	0xbe8a8d02	-0.27060705
27	0xbf80b42a	-1.0054982
28	0xbf545343	-0.8293955
29	0x3ee33d4e	0.4438271
30	0xbf5f3890	-0.8719568
31	0xbe945176	-0.289684
32	0xbf6981fe	-0.9121398
33	0x3c1b1acf	0.009466841
34	0x3f196872	0.59924996
35	0x3f2fb3f1	0.68633944
36	0xbf3df444	-0.74200845
37	0x3e402cd8	0.18767107
38	0x3fbbbeed	1.4667641
39	0x4045b01b	3.0888736
40	0x3f3417b4	0.7034867
41	0x3c938438	0.018007383
42	0xbc99dc20	-0.018781722
43	0xbf0b5ef4	-0.5444176
44	0x3ea3cbcc	0.31991422
45	0xbf866774	-1.0500321
46	0xbeadc5f8	-0.339401
47	0x3eca9d87	0.3957331
48	0xbdd14c01	-0.10219575
49	0xbf82a55c	-1.0206714
50	0x3f58e337	0.847217
51	0xbf005e31	-0.50143725
52	0xbe1b02e0	-0.15137815
53	0xc03de0ce	-2.966846
54	0x3e3eeb50	0.18644452
55	0xbf1c8c43	-0.6115152
56	0x3ed124dd	0.40848437
57	0x3f96a2d5	1.1768442
58	0xbf341359	-0.7034202
59	0xbf733db5	-0.9501603
60	0x4003e1ba	2.0606523
61	0xbfca6595	-1.581225
62	0xbf98fae8	-1.195157
63	0xbe21419b	-0.15747683

lstm.bias_ih_l3 f4 [16]
0	0x3ea02d0f	0.31284377
1	0xbf73605f	-0.95068926
2	0xbe062530	-0.13100123
3	0x3ea3b7b8	0.31976104
4	0xbed4238e	-0.41433376
5	0x3f030050	0.5117235
6	0xbee9988d	-0.456242
7	0xbf1ab4b6	-0.60431993
8	0x3ef427a1	0.47686484
9	0x3f3887b6	0.7208208
10	0xbe96f1e3	-0.2948142
11	0x3d39a3e0	0.0453223
12	0x3e6a9b5f	0.22910832
13	0xbdaae8b9	-0.083451696
14	0xbe2929b4	-0.16519815
15	0x3dba7b43	0.091055416

lstm.bias_hh_l3 f4 [16]
0	0xbd845764	-0.06461981
1	0xbf6ef320	-0.9333973
2	0x3e83cf67	0.25744173
3	0x3f2c5c35	0.67328197
4	0xbf8840cf	-1.0644778
5	0x3f9fb548	1.2477198
6	0x3d679550	0.05653888
7	0x3d6de8ad	0.058083225
8	0x3e963b0c	0.29341924
9	0x3f49ebbd	0.78875333
10	0xbe2640e1	-0.16235687
11	0x3edbc5cc	0.42924345
12	0xbd7e8b30	-0.06214446
13	0x3e873509	0.2640765
14	0xbe8da5e7	-0.27665636
15	0xbe53df43	-0.20690636

lstm.weight_ih_l4 f4 [16, 4]
0	0xbfb698db	-1.4265398
1	0x3e74caad	0.2390544
2	0xc00bf51f	-2.186836
3	0xbf267b0b	-0.650315
4	0xbf622758	-0.88341284
5	0x3fc0d612	1.5065329
6	0xbfe7beba	-1.810508
7	0x3ec37cdd	0.381812
8	0x3ee0375b	0.43792233
9	0xc0047a23	-2.0699546
10	0x3d2cde72	0.042204328
11	0xbf9ee569	-1.241376
12	0xbf935217	-1.1509427
13	0xc025190d	-2.579654
14	0xc00b9554	-2.1809893
15	0x3f7dbdb2	0.9911758
16	0xbe37f946	-0.17966184
17	0x3fd3c97e	1.6545866
18	0xbec6d485	-0.38834015
19	0xbfe206cd	-1.7658325
20	0xbf5053d2	-0.813779
21	0xbfa0ebf0	-1.2572002
22	0x3d8f6440	0.07001543
23	0xbeee0c7d	-0.46493903
24	0x3f165218	0.58719015
25	0xbf9f6aa2	-1.2454417
26	0xbec742b9	-0.38918093
27	0xbff6c10b	-1.9277662
28	0x3d7f8ded	0.06239121
29	0xc02f4afb	-2.7389514
30	0xc01a1d3b	-2.408034
31	0x3f922629	1.1417896
32	0x3f8790e7	1.0591096
33	0x3ece8f99	0.4034393
34	0xbff21a43	-1.8914264
35	0xbff712f0	-1.9302654
36	0x3f24d9d6	0.6439489
37	0xbe930d75	-0.28721204
38	0xbf961bc7	-1.1727227
39	0xbfbd6c66	-1.4798706
40	0x3db05ad9	0.08611078
41	0x3f09aaee	0.53776443
42	0xbe76dea7	-0.24108373
43	0xc00880ee	-2.1328692
44	0xbf84c0b7	-1.0371312
45	0xbeb53243	-0.3538991
46	0x3fc75a20	1.5574379
47	0x3fd63722	1.6735575
48	0xbf2ec0ee	-0.6826314
49	0xc01462d5	-2.3185322
50	0x3cbbd136	0.022926908
51	0xbcfa796d	-0.030575478
52	0x3ee77d84	0.45212948
53	0xbf00f84a	-0.5037886
54	0xbecfbf3a	-0.40575582
55	0x3f6c65a2	0.9234258
56	0x3e369876	0.17831597
57	0xc022effe	-2.545898
58	0xbed84c86	-0.42245883
59	0xbf4c6010	-0.7983408
60	0xbfa98779	-1.3244468
61	0xbfe9fffe	-1.8281248
62	0xbfba728e	-1.4566209
63	0x3fdb7947	1.7146386

lstm.weight_hh_l4 f4 [16, 4]
0	0x3ff3263f	1.8996047
1	0x3f7a2a33	0.9772064
2	0xbfa1f225	-1.2652022
3	0xbf92f689	-1.1481487
4	0x3ebbaa20	0.36653233
5	0xbfd0c735	-1.6310793
6	0x400d8015	2.2109425
7	0xbe205009	-0.15655531
8	0xbfd5e319	-1.670993
9	0xbef56ba9	-0.479337
10	0xbee9ab5e	-0.45638555
11	0x3cefbc2f	0.029264538
12	0x3f48880c	0.7833259
13	0x3f70e467	0.94098514
14	0x3f69b160	0.9128628
15	0x3f841234	1.0318055
16	0x3f7b4722	0.98155415
17	0x400b710f	2.1787755
18	0xbfd8d4fe	-1.694
19	0xbe916184	-0.2839471
20	0x3f6a9ce0	0.9164562
21	0x3dd04cf6	0.10170929
22	0xbf54827c	-0.83011603
23	0x3cde3945	0.027126918
24	0xbf23dcd0	-0.6400881
25	0x3f71ae70	0.94406796
26	0xbfa937e8	-1.3220186
27	0xbe36509a	-0.17804185
28	0x3f2e2e19	0.6803909
29	0x3f2e9414	0.681947
30	0x3e532071	0.20617844
31	0xbe94ccb6	-0.29062432
32	0xbf3e8a26	-0.7442955
33	0x3fbc073d	1.4689709
34	0xbf268bf3	-0.65057296
35	0xbef0d444	-0.47036946
36	0xbf898ddb	-1.0746416
37	0xbf43b137	-0.76442283
38	0xbe2e5ebd	-0.17028327
39	0x3f782c18	0.9694228
40	0x3f200900	0.6251373
41	0x3ee7f882	0.45306784
42	0x3f488852	0.7833301
43	0x3f82f41a	1.0230744
44	0x3ee09117	0.43860695
45	0xbe8cec1c	-0.27523887
46	0xbea11d6e	-0.31467766
47	0xbe2a9baf	-0.16660951
48	0x40022618	2.033575
49	0xbf76be9b	-0.9638459
50	0x3eac5362	0.33657366
51	0xbf932e1f	-1.149845
52	0xbf092b7a	-0.53581965
53	0xbef268f7	-0.47345707
54	0x3faa511f	1.3306006
55	0x3e92fb16	0.28707188
56	0xbf9e380c	-1.2360854
57	0x3f84eb1b	1.0384248
58	0xbea4f7d3	-0.32220325
59	0x3e99e7c3	0.30059633
60	0x3f248c89	0.6427694
61	0x3df292ca	0.11844404
62	0x3e6371be	0.22211358
63	0xbf3c9329	-0.7366205

lstm.bias_ih_l4 f4 [16]
0	0x3f98755a	1.1910813
1	0x3f1e9d61	0.6195889
2	0xbf1e98e5	-0.6195205
3	0x3e9bfe54	0.30467474
4	0xbe5800e5	-0.21094091
5	0xbea85fd8	-0.32885623
6	0x3e68e74f	0.22744487
7	0x3e5f23c9	0.21790995
8	0xbeeb251c	-0.4592675
9	0x3e3e96f0	0.18612266
10	0xbdf2c869	-0.118546315
11	0x3d320983	0.043466102
12	0x3e43d1b7	0.19122969
13	0x3fccb924	1.5994
14	0xbe91fa70	-0.2851138
15	0x3e10e534	0.14149934

lstm.bias_hh_l4 f4 [16]
0	0x3f208660	0.6270504
1	0x3f84c2bd	1.037193
2	0xbf3fb38e	-0.74883354
3	0xbebb0b25	-0.3653194
4	0xbef2b234	-0.47401583
5	0xbf84014e	-1.0312898
6	0xbe6c6971	-0.23087098
7	0xbe392b63	-0.18082957
8	0x3da53350	0.08066428
9	0xbe3f85b4	-0.18703347
10	0x3e81c530	0.25345755
11	0xbe81f008	-0.25378442
12	0x3f008a02	0.50210583
13	0x3fde13ae	1.7349756
14	0xbebf6f09	-0.373894
15	0x3f000998	0.5001464

lstm.weight_ih_l5 f4 [16, 4]
0	0x3d888304	0.06665614
1	0x3fd80aa1	1.6878244
2	0x3f92e202	1.1475222
3	0x3f03281c	0.5123308
4	0x3f85f978	1.0466757
5	0x3eee2c4e	0.46518177
6	0x3f607028	0.87671137
7	0x3f9ad4f2	1.2096236
8	0x3f290c3c	0.66034293
9	0x40046301	2.0685427
10	0xbe200c27	-0.15629636
11	0xbe9f9fe8	-0.31176686
12	0x3e689203	0.22711949
13	0xbf980299	-1.1875793
14	0xbed2aa4c	-0.4114555
15	0xbead7075	-0.3387486
16	0x3ed8cfa9	0.42345932
17	0x3dad595e	0.08464311
18	0x3e547610	0.20748162
19	0xbc51c50c	-0.012803327
20	0xbcdc2e7f	-0.02687764
21	0xbf877299	-1.0581847
22	0xbf50a8cf	-0.8150758
23	0x3e03efeb	0.1288449
24	0x3ed6275e	0.4182691
25	0x40155848	2.3335133
26	0x3eaffaec	0.34371126
27	0xbd1f9bfa	-0.03896711
28	0xbf06bf55	-0.526357
29	0x3f62414e	0.883809
30	0xbeb25446	-0.3482992
31	0xbfa5521b	-1.2915682
32	0xbdd1c9b0	-0.10243547
33	0x3f5871a5	0.8454841
34	0x3f21b628	0.63168573
35	0x3f4b64d0	0.794507
36	0xbf80cdec	-1.0062842
37	0xbf6c624f	-0.92337507
38	0xbe3e05ef	-0.18556951
39	0x3fb7f2bf	1.4370955
40	0x3f1a7a46	0.60342824
41	0x3ff08e40	1.8793411
42	0x3f09345c	0.5359552
43	0xbf718773	-0.94347304
44	0x3f05f728	0.52330256
45	0xbfb04091	-1.3769704
46	0xbefae71d	-0.4900445
47	0xbfaa8655	-1.3322245
48	0x3f330ad6	0.6993841
49	0x3fc42052	1.5322363
50	0x3f8182a4	1.0117993
51	0xbdf1478e	-0.11781226
52	0x3ef4ce64	0.47813714
53	0xbf25a08c	-0.646981
54	0x3f8a03cb	1.0782408
55	0x3f471673	0.7776863
56	0x3fa7cc70	1.3109264
57	0x4037158b	2.8606899
58	0x3f39cb86	0.7257618
59	0xbeb68930	-0.3565154
60	0x3ffe9892	1.9890311
61	0x3eea1aae	0.4572348
62	0xbf929da0	-1.1454353
63	0xbf5666d9	-0.83750683

lstm.weight_hh_l5 f4 [16, 4]
0	0x3f7a6446	0.97809255
1	0x3f1b82f8	0.6074672
2	0x3fcb59c0	1.5886765
3	0x3dee2a25	0.11629132
4	0xbd307e95	-0.043089468
5	0x3ef0134e	0.46889728
6	0x3fdfcbe9	1.7484103
7	0xc03e0b0b	-2.969424
8	0x3fbce478	1.4757223
9	0x3eac3b3e	0.33638948
10	0x3f930a75	1.1487566
11	0xc03c8993	-2.9458969
12	0xbf88f0e7	-1.0698518
13	0xbea1548e	-0.31509823
14	0xc018225f	-2.3770978
15	0x3ea28ede	0.31749624
16	0x3f99958d	1.1998764
17	0xbe373308	-0.1789056
18	0x3fa44b0f	1.2835406
19	0x3fabfd07	1.3436593
20	0xbe92e999	-0.28693846
21	0xbed3d2fe	-0.41371912
22	0x3f2ccea8	0.6750283
23	0xbed803d1	-0.42190412
24	0xbf8ebe99	-1.1151916
25	0x3e598229	0.21241058
26	0xbe16c211	-0.14722468
27	0x40090dcc	2.141467
28	0xbec20051	-0.37890866
29	0xbf8be5e8	-1.0929537
30	0x3f9212c8	1.1411982
31	0xbec49851	-0.38397458
32	0xbf07b1b1	-0.5300551
33	0xbd704ad5	-0.058665115
34	0x3fc14528	1.509923
35	0x3ef5a428	0.47976804
36	0xbcad7134	-0.021172144
37	0xbf9081be	-1.1289594
38	0xbf64911e	-0.8928393
39	0x3e80d034	0.25158846
40	0xbf9376fe	-1.1520689
41	0x3f65ea03	0.898102
42	0xbf82c24e	-1.0215547
43	0x3c83113d	0.01599943
44	0x3d23ec6c	0.04002039
45	0xbf649f7a	-0.8930584
46	0x3f308342	0.68950284
47	0xbf695215	-0.9114087
48	0x3eef835e	0.46779913
49	0xbeb16bc7	-0.3465254
50	0x3fec7d00	1.8475647
51	0xbf8876de	-1.0661275
52	0xbe2d4ef1	-0.16924645
53	0x3d04e524	0.032445088
54	0x3bf51f6b	0.007480552
55	0xbf011fb8	-0.50439024
56	0x3f6e2407	0.93023723
57	0xbbb8c80d	-0.0056390823
58	0x3c3813f8	0.01123523
59	0xc0003720	-2.0033646
60	0x3eb3badf	0.3510351
61	0xbfe2244b	-1.7667326
62	0x3f8a8070	1.0820446
63	0xbf28fd60	-0.6601162

lstm.bias_ih_l5 f4 [16]
0	0xbf4dda86	-0.80411565
1	0x3da0ff15	0.07861153
2	0x3e8ee005	0.27905288
3	0xbf2da8f4	-0.67835927
4	0xbfaad7f0	-1.3347149
5	0x3dc4169a	0.095746234
6	0xbee89c41	-0.45431712
7	0x3f03d8eb	0.51502866
8	0x3e4a07e3	0.19729571
9	0x3e95e571	0.29276612
10	0xbd71d069	-0.059036646
11	0xbf4c007e	-0.7968825
12	0xbf80ad78	-1.0052938
13	0x3f98a7a2	1.1926157
14	0x3e096ccb	0.13420407
15	0xbe3f6311	-0.18690135

lstm.bias_hh_l5 f4 [16]
0	0xbf837b24	-1.0271955
1	0x3e12c189	0.1433164
2	0xbf1effaf	-0.6210889
3	0xbcc9dcb7	-0.024641378
4	0xbed243ed	-0.41067448
5	0x3e3fafd1	0.18719412
6	0xbf889072	-1.0669081
7	0x3ee7469d	0.4517106
8	0xbec06d52	-0.37583405
9	0xbef7f77d	-0.48431006
10	0xbedd4804	-0.43219006
11	0xbf06fc0f	-0.5272836
12	0xbefad721	-0.48992255
13	0x3fbc243d	1.4698559
14	0xbdd5836f	-0.104254596
15	0xbf05e9ef	-0.5231008

lstm.weight_ih_l6 f4 [16, 4]
0	0x3e844b25	0.2583858
1	0xbe287ef0	-0.16454673
2	0xbe48c1d8	-0.19605196
3	0x3ef52257	0.47877762
4	0xbf5db211	-0.8659983
5	0x3e6f66d0	0.23379064
6	0xbdcf738f	-0.10129463
7	0xbf026c6a	-0.50946677
8	0xbee4eed0	-0.4471345
9	0xbd0025c0	-0.031286
10	0x3f67c4e6	0.9053482
11	0xbf122ffc	-0.5710447
12	0xbdd40b30	-0.10353696
13	0xbf011c84	-0.50434136
14	0x3f50402b	0.8134791
15	0x3f8891ff	1.0669554
16	0xbd70a04c	-0.05874662
17	0xbf1c6283	-0.61087817
18	0x3ebed08b	0.3726848
19	0x3e1396f3	0.14413051
20	0xbee791eb	-0.45228514
21	0xbec35e65	-0.38157955
22	0x3d39215f	0.04519784
23	0xbe6ed81b	-0.23324625
24	0xbdb23149	-0.08700807
25	0xbecba47e	-0.39773935
26	0xbe5fc069	-0.21850742
27	0xbdf47fca	-0.11938436
28	0x3f2bbb09	0.6708227
29	0xbeda6d48	-0.426615
30	0x3f535162	0.82546055
31	0x3f491765	0.7855132
32	0x3e710680	0.23537636
33	0xbeb049fd	-0.3443145
34	0xbdb6e650	-0.089306474
35	0xbb8c2b4d	-0.004277623
36	0xbf01cd64	-0.50704026
37	0xbf9a0f2a	-1.2035878
38	0x3e4faac9	0.20279993
39	0xbdb6b229	-0.089207
40	0xbe2ead06	-0.1705819
41	0x3f95f8d1	1.1716558
42	0xbe0c422c	-0.13697118
43	0x3ed1870e	0.4092335
44	0x3e84234b	0.25808176
45	0x3ffe49af	1.9866236
46	0x3f0814c7	0.53156704
47	0xbe81d7b5	-0.25359884
48	0x3ef98569	0.48734596
49	0x3e85391a	0.26020128
50	0xbcf6e9e1	-0.030140819
51	0xbf22f78a	-0.63658965
52	0x3f8780ea	1.0586216
53	0x3ee00630	0.4375472
54	0x3eab1046	0.33410853
55	0x3f45dd35	0.7729066
56	0x3ef5845f	0.47952554
57	0x3e479537	0.19490515
58	0x3f1f0d8a	0.62130034
59	0xbf246621	-0.64218336
60	0x3f7dcc68	0.99140024
61	0x3e0a7b8f	0.13523696
62	0x3fe342ee	1.77548
63	0x3fb5883c	1.41822

lstm.weight_hh_l6 f4 [16, 4]
0	0xbf1b3aeb	-0.60636777
1	0xbf0dbb3b	-0.55363816
2	0x3e24693a	0.16055766
3	0x3f0ac751	0.5421038
4	0xbde10294	-0.1098682
5	0xbe8d308c	-0.275761
6	0xbd07627c	-0.033052906
7	0x3efa6123	0.48902234
8	0xbe1fc286	-0.15601549
9	0xbe503d10	-0.20335793
10	0xbe905153	-0.28187045
11	0x3fa5e74e	1.2961214
12	0x3e71b0ce	0.23602602
13	0x3dfe4b80	0.12416744
14	0xbee5addd	-0.4485921
15	0xbea10ec0	-0.31456566
16	0x3deee8d9	0.11665506
17	0x3d7f7228	0.062364727
18	0x3f504915	0.81361514
19	0x3f15ebc9	0.58562905
20	0xbdf07898	-0.117417514
21	0xbda03e01	-0.07824326
22	0xbea51899	-0.3224533
23	0x3db485c1	0.08814574
24	0x3e54254a	0.2071735
25	0xbc92b12b	-0.017906746
26	0xbeb41888	-0.35174966
27	0x3efad481	0.48990253
28	0x3efbdf30	0.49193716
29	0xbf27c7bf	-0.65539163
30	0x3e4bed86	0.19914827
31	0xbdf8f806	-0.12156682
32	0xbd39a361	-0.045321826
33	0x3ed75827	0.42059442
34	0xbe2ff468	-0.17183077
35	0x3ee7f024	0.453004
36	0xbe89b8ba	-0.26898748
37	0xbf901c36	-1.1258609
38	0x3f4ae38f	0.79253477
39	0x3f6f6439	0.935123
40	0x3e25f61e	0.16207168
41	0xbdb2cbf6	-0.08730309
42	0xbeffff1c	-0.4999932
43	0xbf244128	-0.6416192
44	0x3eaf97d0	0.3429551
45	0x3e2d8518	0.16945302
46	0xbf2abd3c	-0.66695
47	0x3c1ac6e8	0.009446837
48	0x3d826c17	0.06368273
49	0xbf12ab74	-0.57292867
50	0x3ea4028d	0.32033196
51	0x3e86c06e	0.26318687
52	0xbefea724	-0.49736893
53	0xbea5765e	-0.3231687
54	0x3eb0b310	0.34511614
55	0x3f51f311	0.82011515
56	0xbe205843	-0.15658669
57	0xbe850669	-0.25981453
58	0x3f381fb7	0.71923393
59	0x3f23916b	0.63893765
60	0xbeecd4f6	-0.46256226
61	0x3e7ed3f6	0.24885544
62	0x3f3c44a7	0.73542255
63	0xbe452256	-0.1925138

lstm.bias_ih_l6 f4 [16]
0	0xbde61b31	-0.11235655
1	0xbeb80299	-0.35939482
2	0x3d1fcc9c	0.03901349
3	0xbee15b46	-0.4401495
4	0xbed025cc	-0.40653837
5	0x3e9c09bf	0.30476186
6	0x3d4cdadf	0.05001342
7	0x3f33548c	0.70050883
8	0xbc5bb526	-0.013409888
9	0x3ecdec36	0.40219277
10	0xbe0e3a8d	-0.13889523
11	0x3cdd82d4	0.027039923
12	0x3cd95011	0.026527436
13	0x3d1fcdb1	0.039014522
14	0xbd9ab4fe	-0.07554053
15	0xbdabed05	-0.08394817

lstm.bias_hh_l6 f4 [16]
0	0xbf2e9f71	-0.6821204
1	0xbf0445fd	-0.51669294
2	0x3e64dbcf	0.22349475
3	0xbdedb4a1	-0.11606718
4	0xbea2eb8a	-0.31820327
5	0x3e5973d1	0.21235587
6	0xbdaed56c	-0.08536801
7	0x3eded42b	0.43521246
8	0x3da51f1c	0.08062574
9	0xbe926fdb	-0.28600964
10	0x3b3eb7e2	0.0029101302
11	0xbcea8399	-0.028627204
12	0xbf3ad5a1	-0.7298222
13	0x3e0ccb4e	0.1374943
14	0x3e50524c	0.20343894
15	0xbdaedfbb	-0.08538767

fully_conected.weight f4 [1, 4]
0	0x3daec1bf	0.08533048
1	0x3efaed06	0.4900896
2	0xbec93629	-0.39299133
3	0xbeffd0a0	-0.49963856
